data/current_dataset/models/switchtab/best-val-42.pth (torch, 862354 bytes, 44 tensors)

encoder.transformer_layers.0.self_attn.in_proj_weight f8 [24, 8]
-0.3593707763892005 0.1430925873343332 0.07763599259111797 -0.04528689944509701 -0.42587027221130425 0.37103015541350165 -0.357333285439711 -0.01590788564862808
-0.3660323097717259 0.060035118277934896 0.1294338344808276 0.4882693718216542 0.39349436506147367 0.17160394054876438 0.3918160183486158 0.4976050706651303
-0.2101882442833671 -0.2671809546158137 0.19271427291747611 -0.26049815709832314 -0.022922719044760665 -0.05190593974238165 -0.4169462726164885 -0.14516787463194852
0.22259628642959112 0.40499896181800754 -0.09101026905889205 -0.05935143698597634 0.36620987262396565 -0.1953836927963668 -0.257980287201628 0.47822149658883434
0.2975545612633588 -0.18768249827723343 -0.0890915323384279 -0.11820940941630498 0.33434760959006976 -0.2458975740616512 0.053412608980898654 0.18075382857192812
0.08666766930641302 0.1574413568030788 -0.4676319702221564 -0.36145473551344914 0.26421290952405635 -0.3962285016300056 -0.30386871977836194 0.24377609212066043
0.20506185779675135 0.1975354560382824 -0.2559419673540799 0.30660570957549543 0.1673009032034842 0.15121136067433555 0.05340129229661155 0.4497156414809931
-0.14464194003381542 0.13703892689314565 -0.2811273106893442 -0.4479500957612918 0.24132724620690765 -0.03743396175572198 -0.24037749714226223 0.08384369043661681
0.3173437205407522 -0.22825204809328384 -0.3613696329640488 -0.2388679659808314 -0.009440189063722102 -0.1990347555197993 0.3362677934098376 -0.3667603116377288
-0.011366205126032047 -0.3650820206437681 -0.38748275562422724 -0.4184232070059401 -0.022610455940539342 0.36579622550357893 -0.32304172911985785 -0.118271646177868
-0.06922538866553564 -0.2696566940701539 0.3755333502167625 0.2593149711761296 -0.17090323605667915 -0.46881682903931193 0.11482522204484094 -0.08417814544306193
0.0978603577302978 0.26337147452517656 0.3295218918223893 -0.2948183493228607 -0.09132959284882174 0.27217411128779007 0.33088455855499255 0.1389937240394393
0.11198920988007942 0.2511634010641757 0.21803656550983394 -0.260934064227321 0.26583631532058094 -0.16015869011353073 -0.12009027117944 0.08594129049446181
-0.16664445099867006 0.13074019627544783 0.25421039924645167 -0.3660539674274312 0.15451073153663988 -0.23259182769925987 0.3047323371615745 -0.14533212034129472
0.4649617602151492 0.10077258937574712 -0.10505812019878842 -0.08406525816185147 0.14697741597367808 0.15896988845015514 -0.45499982101185393 0.07571869484284373
0.0848187690320921 -0.02080262829371389 -0.12724620584968657 -0.34463701445573675 -0.0062527823806565516 0.027443259234108744 0.32116056099104545 -0.14298721577389356
-0.1308832872686546 -0.08357791490120511 -0.23242012194094505 -0.23169439862054844 0.004365403630562082 0.15044035775063463 0.031240059775642565 0.12676659177903796
0.10337539287040462 -0.4262288336472302 -0.004124987080366886 0.1037944101674445 0.39440559081957616 0.012309424455027133 -0.24201641675278454 -0.09666670151823127
0.12462089607880802 -0.028791061646755604 -0.20313527005121002 -0.10871557281658532 -0.3223819383534523 -0.22532492641992602 0.24459950106136508 -0.27979139971382805
0.2766425009254985 -0.10217324428320836 -0.006947112413166804 0.33078806508338326 -0.06253984949848346 -0.40817842064865334 0.08323476663399336 -0.27312283014200145
-0.44121877119216496 0.08213993026845694 -0.05593220748958258 -0.3162470508894371 0.2012357947536674 0.1319341978008783 0.04123265776744128 -0.44114636641043176
-0.3998483637219079 0.36145864080878876 0.14444939665125214 0.22836739050537302 -0.0577529271820562 -0.03793298729705866 0.4078571206541251 -0.1708978794658582
-0.15377592172533622 0.3981801215653678 0.3396463342784923 -0.011010719832744504 0.19663769559580796 0.05737810066984009 -0.4669307924425706 0.4274028378314397
-0.16395167379792255 0.22374194060582112 0.20923759861275182 -0.031425368841477806 -0.41736636012447065 0.04053030491677007 0.4305078754716804 -0.09377606565393559
00000000: 25b4 ee48 eeff d6bf 7953 739f db50 c23f
00000010: 98dd 2bd1 f3df b33f 019d 1b30 d82f a7bf
00000020: 661d df62 7541 dbbf 9d2b d543 f5be d73f
00000030: 3617 af6d 8cde d6bf 78fd 6f22 284a 90bf
00000040: 0bee efc7 126d d7bf 68fe 3a4b ecbc ae3f
00000050: eda6 0bb3 4991 c03f b032 e72d ce3f df3f
00000060: 2b5b 46fd 022f d93f 20c6 4230 1ef7 c53f
00000070: a6cc 367e 8313 d93f f926 35f0 c2d8 df3f
00000080: 37b1 99c9 72e7 cabf 4018 8c25 7e19 d1bf
00000090: cc94 d37d dcaa c83f d4f4 5976 00ac d0bf
000000a0: add3 87a2 0d79 97bf 2dc7 5253 6a93 aabf
000000b0: 3bec 446b 3faf dabf 92ad fc64 dc94 c2bf
000000c0: d68b 36fd 087e cc3f e206 fbc3 80eb d93f
000000d0: 2d46 35f1 724c b7bf 5197 a6c1 4f63 aebf
000000e0: c21a 9988 fb6f d73f a8b5 5d35 5502 c9bf
000000f0: a6cb 22c0 bf82 d0bf 4df7 0556 2e9b de3f
00000100: 58b6 5949 220b d33f 02ef 10e8 fa05 c8bf
00000110: a67b bee1 b3ce b6bf d8c2 85cb f842 bebf
00000120: 19d9 2b84 f365 d53f 0a59 615b 9279 cfbf
00000130: a6b3 88c1 e558 ab3f b0ee 2b03 f122 c73f
00000140: 71a5 4a35 da2f b63f 58e8 40d3 0927 c43f
00000150: eac3 aaa4 aeed ddbf 1bef 000b 1322 d7bf
00000160: 9b8e 6543 dde8 d03f fd9c 0fca ce5b d9bf
00000170: d26d 6ec9 9572 d3bf d03a 9a13 0e34 cf3f
00000180: 3870 728a 773f ca3f 2d10 be81 d748 c93f
00000190: 486b dd6a 5a61 d0bf 2f31 d98d 6d9f d33f
000001a0: 37d4 ecb1 1d6a c53f 9aa1 70d4 e45a c33f
000001b0: 57c7 f407 6a57 ab3f 1046 2a1d 24c8 dc3f
000001c0: 26a1 0989 a083 c2bf bb7a a4d6 7d8a c13f
000001d0: 2115 5b67 fdfd d1bf 6f3a e2e0 36ab dcbf
000001e0: 0ad4 0bab cfe3 ce3f dd46 0053 8b2a a3bf
000001f0: 05ce 7598 b0c4 cebf 2bb6 66b4 c776 b53f
00000200: 4a10 5409 5c4f d43f 4d20 e7f4 5c37 cdbf
00000210: 7c47 d618 ae20 d7bf 2590 f9ba 3993 cebf
00000220: f2ba 5fba 6055 83bf 4fc9 dc8a f879 c9bf
00000230: 6e2c d959 6985 d53f aa1b fd3d 0079 d7bf
00000240: 4613 5e3a 2a47 87bf f771 c1fa 805d d7bf
00000250: 8be1 ca78 84cc d8bf bf96 7e21 72c7 dabf
00000260: 80c2 3f03 3227 97bf 7070 6292 3469 d73f
00000270: 8209 7437 b7ac d4bf 58c6 60f4 0c47 bebf
00000280: c111 5f4c c1b8 b1bf 4471 8b26 0e42 d1bf
00000290: 7640 6f08 bd08 d83f 6123 24d2 9d98 d03f
000002a0: c16e d240 28e0 c5bf fb72 224d 1801 debf
000002b0: 8243 708d 2f65 bd3f 1244 b7ed b28c b5bf
000002c0: 0ac8 065c 600d b93f 4d3c 7207 14db d03f
000002d0: 955d 2cfd e216 d53f 918d 26c8 4dde d2bf
000002e0: cb53 714e 6061 b7bf 8d21 b3f6 4c6b d13f
000002f0: 8eaf 6f6d 362d d53f 43a0 8cdd 8bca c13f
00000300: 1f98 f029 53ab bc3f 0075 61a8 0f13 d03f
00000310: f733 1947 9fe8 cb3f 8032 11ca 24b3 d0bf
00000320: c806 1952 7603 d13f 9e99 1a78 1480 c4bf
00000330: 3d91 486b 3cbe bebf 5cbc 0c98 3f00 b63f
00000340: 5bb1 8cf9 9a54 c5bf 2349 a341 18bc c03f
00000350: 6343 c4b1 fb44 d03f dbff aa9e 6d6d d7bf
00000360: 115b 6af5 01c7 c33f 0b81 a4aa 91c5 cdbf
00000370: 7d20 890f bc80 d33f 184c f62f 3e9a c2bf
00000380: 2ff0 80f8 eec1 dd3f ecba b37f 3bcc b93f
00000390: 45db 6ec6 16e5 babf 6df2 88fe 4c85 b5bf
000003a0: b8c3 6ded 27d0 c23f 8099 f813 2059 c43f
000003b0: 0fa2 bb91 b71e ddbf b5ba 0be6 4c62 b33f
000003c0: a26e 14cf aeb6 b53f 34f6 c4c0 484d 95bf
000003d0: ef0d 558a 9a49 c0bf a105 8568 880e d6bf
000003e0: a6c1 577d 849c 79bf 04e5 9ff3 151a 9c3f
000003f0: ef2d 8e06 e58d d43f 1e5b bfb3 674d c2bf
00000400: 54b7 3497 c8c0 c0bf e625 2bbb 5c65 b5bf
00000410: ab97 554b f1bf cdbf 29ee 5e7c 29a8 cdbf
00000420: 34d1 3b1d 75e1 713f 52cd 4430 a141 c33f
00000430: f8f1 3eec 64fd 9f3f f94a f53e e339 c03f
00000440: 0eec 964b cf76 ba3f 0c22 484d 5547 dbbf
00000450: 6ba0 b4c9 5ce5 70bf b841 2d3d 4592 ba3f
00000460: 2e7f 7bf2 f03d d93f bc42 bcfb ae35 893f
00000470: 392f 86d9 64fa cebf 150c a221 26bf b8bf
00000480: 9283 0eb1 27e7 bf3f 617e c270 677b 9dbf
00000490: 945c c426 5600 cabf fb29 d0a5 c8d4 bbbf
000004a0: 8825 83da e7a1 d4bf 7a3d f97a 72d7 ccbf
000004b0: e896 d654 094f cf3f e644 de2f 1ae8 d1bf
000004c0: 9527 8abf 82b4 d13f 3dfc b896 0628 babf
000004d0: f7e6 db49 9374 7cbf 112d 5cb4 a12b d53f
000004e0: 90f1 4a90 9c02 b0bf 039c e761 981f dabf
000004f0: 2b4c 95a8 df4e b53f 140e d02d d87a d1bf
00000500: b9b4 29a8 ed3c dcbf d3e0 325a 1f07 b53f
00000510: acf3 eb73 25a3 acbf 7db3 4145 643d d4bf
00000520: 7133 a032 18c2 c93f a7ae 6344 38e3 c03f
00000530: f8d1 4669 721c a53f b3d9 1ef8 bd3b dcbf
00000540: 7cdc 6297 1d97 d9bf cc57 486c 2322 d73f
00000550: c1a3 455d 517d c23f 94c2 d884 243b cd3f
00000560: f68a fdaa ca91 adbf 64ca c2d7 f36b a3bf
00000570: c59c a9c0 541a da3f 777c a151 fbdf c5bf
00000580: 567d 5ced edae c3bf 8598 027a c87b d93f
00000590: 93ac 7bfa c3bc d53f 8a4a b2cc c98c 86bf
000005a0: 8e55 df8b 6c2b c93f d461 c493 a960 ad3f
000005b0: 2d51 c2b0 31e2 ddbf 3108 ad6e 915a db3f
000005c0: a913 8b52 5efc c4bf 3da2 d26e 93a3 cc3f
000005d0: f452 9131 4cc8 ca3f 7bb5 e066 fc16 a0bf
000005e0: a9d9 cb64 21b6 dabf 4997 3a5c 63c0 a43f
000005f0: 4f90 74e7 708d db3f 7896 214f b501 b8bf

encoder.transformer_layers.0.self_attn.in_proj_bias f8 [24]
0.0008353310202183231 -0.06901482773069534 0.054244898520733054 -0.02092867282193146 -0.0452413091518386 0.0687574926759255 -0.13203764739147186 0.08599247861483894
-1.2856977963450064e-07 1.7638004404870323e-07 6.770308274916709e-08 -3.3972890990695026e-07 1.3393834955276744e-07 2.2972984070190977e-07 2.227649705116012e-07 2.9841868351228e-07
-0.07328747314765732 -0.03621550048726875 -0.002149825491517645 0.07913121677358688 0.06694136958699172 0.0629215944212965 -0.029121312712470565 0.12561991260119365
00000000: 0dd2 e2b4 435f 4b3f 68db 0aac f4aa b1bf
00000010: 7826 3ec2 fcc5 ab3f 6388 4675 536e 95bf
00000020: b782 786e de29 a7bf 3be7 654e 179a b13f
00000030: 2d8e b110 9ce6 c0bf 604b 5a63 9a03 b63f
00000040: f196 d3bd 9f41 81be 5ea0 5346 5fac 873e
00000050: 0cb1 3d3a 852c 723e 5d17 048c 7fcc 96be
00000060: 9c77 912e 16fa 813e 8c91 7d0c 75d5 8e3e
00000070: b3f7 1767 25e6 8d3e 6e71 f73f cb06 943e
00000080: ac2b 60c4 f7c2 b2bf 72f5 668c d68a a2bf
00000090: eb9c b3c5 829c 61bf 3d9f 2284 f141 b43f
000000a0: e925 20d1 1123 b13f c66b 402e a11b b03f
000000b0: 88d9 dd36 fad1 9dbf d09b 2c34 5014 c03f

encoder.transformer_layers.0.self_attn.out_proj.weight f8 [8, 8]
0.24011627531529944 0.1858463012340493 0.14118356398747556 -0.37401035038345903 -0.006115549649260519 0.10176702280360297 -0.03430403363443145 -0.2801796503203287
0.4259175486656396 0.30252028078701804 0.22922018634740796 0.08718595969651582 0.10722622029644122 -0.3781764858410769 0.24279001124023045 -0.21773236207240623
-0.056660364702806644 0.09908539488395195 0.2807859086518013 -0.03859563375780438 0.3717931480635898 0.1806406555334594 0.18614810806625218 0.04120604601195927
-0.07396772343803326 -0.13448384539982827 -0.2705709259497591 0.25717835726059846 0.25833122227193933 -0.013989000108720858 -0.3265871793697917 0.3012687541996197
0.10691048836286515 -0.0345652670639877 0.09793440955319287 -0.4156695608205498 -0.11260782270723235 -0.08841456213892006 0.26384686018458275 -0.16303853255200274
-0.2521363093456574 0.21694486450507988 0.03145785780703932 -0.38629784871201334 -0.12585230604116052 -0.38234170703567316 0.22391225317688854 -0.15507268023810816
-0.3195171358353905 0.12146244582951903 -0.18731758172275717 0.29984279147745113 0.3210508512586239 -0.2669858386280702 -0.30929485985776184 0.2858166354776285
-0.31323830644085404 0.06683002676609458 0.19751816278143405 0.07477651874073284 -0.11107077522089866 0.048228933341335746 0.030522130951558205 0.33679791721978075
00000000: b0b7 db4e 21bc ce3f cbff f0c4 cfc9 c73f
00000010: 0c8b 0793 4d12 c23f 1bcc d01b c9ef d7bf
00000020: 71a7 d95b 9e0c 79bf f2b4 c052 670d ba3f
00000030: 4e5a 295d 4c90 a1bf 915a c8a0 76ee d1bf
00000040: 26ee 93ad 3b42 db3f c1d8 1606 7e5c d33f
00000050: 71fa f849 1657 cd3f fc20 91ad d151 b63f
00000060: 7668 7275 2d73 bb3f b66e b325 0b34 d8bf
00000070: e33f 093b be13 cf3f 55df 306f a7de cbbf
00000080: 8d87 c15a 9602 adbf 87ae 8912 a95d b93f
00000090: 8a93 b575 65f8 d13f fe2d 8491 cec2 a3bf
000000a0: 1bd7 f37c 75cb d73f 0f0f eca5 3b1f c73f
000000b0: 81ac 2d82 b3d3 c73f e9a4 0978 f518 a53f
000000c0: a83c 2079 8cef b2bf 1092 ea42 c436 c1bf
000000d0: 45f8 8cb7 0851 d1bf ee16 6b36 9c75 d03f
000000e0: 5b65 ccad 7f88 d03f 8bfc c3cf 43a6 8cbf
000000f0: bde9 abe9 cde6 d4bf 9304 a6bd fc47 d33f
00000100: 542e 1e5b 7c5e bb3f 1613 3ce7 89b2 a1bf
00000110: cf1c 2fbe 3a12 b93f 37af 6a80 549a dabf
00000120: e823 cdc3 ddd3 bcbf 5f77 e034 56a2 b6bf
00000130: c948 e9f0 dde2 d03f 403b a656 72de c4bf
00000140: eb84 b154 0023 d0bf e4cf 0a6d d9c4 cb3f
00000150: 0b87 f78c 3e1b a03f 9eed ae9c 1ab9 d8bf
00000160: 0157 49a9 ed1b c0bf a45c e759 4978 d8bf
00000170: 9bc1 481e 28a9 cc3f 4018 10ed 6bd9 c3bf
00000180: 832c 3b00 f872 d4bf 2fab 87b0 2918 bf3f
00000190: bd86 bbc3 05fa c7bf 6991 d5d1 9f30 d33f
000001a0: 5d8f a0de 188c d43f c1c5 59c5 4b16 d1bf
000001b0: 483d faaa 7ccb d3bf e2dd 81db d14a d23f
000001c0: 2e25 81ae 180c d4bf fde6 59cb c51b b13f
000001d0: db91 c170 4648 c93f b50b 80ce 8d24 b33f
000001e0: f578 1d63 226f bcbf 8510 d876 76b1 a83f
000001f0: c1f5 f688 3141 9f3f cf78 f4d9 188e d53f

encoder.transformer_layers.0.self_attn.out_proj.bias f8 [8]
-0.0581329752785706 -0.06747995865260291 0.061379712323877636 0.01637316017406192 -0.0736131909924695 -0.042152888073412706 0.050574254301868134 0.03013564195996206
00000000: 9a01 48f7 9ac3 adbf 6f61 8cd7 5d46 b1bf
00000010: 724c 2362 296d af3f ad47 eb2d 20c4 903f
00000020: 6dea dd67 50d8 b2bf 761d 6a37 1095 a5bf
00000030: 4102 7e60 dee4 a93f f4e3 a5b2 e0db 9e3f

encoder.transformer_layers.0.linear1.weight f8 [2048, 8]
0.09275904665949884 0.1089939052127003 -0.18618938389271056 0.2528584317178883 0.09307331280944753 0.030847970861247645 -0.16562798187720057 0.0743605225315808
0.07438453964799137 -0.07917533598620417 -0.020581667025029983 -0.05747409328499026 0.3136781070572473 0.2191848549740813 0.12018792961217564 -0.28206051829171275
0.23174654703113545 0.08254013966899165 0.004131779688948782 -0.02242812174798078 0.049590733799987595 -0.12143743806209634 0.05933449093194252 0.007869097053424598
-0.1733104243468191 -0.07927306483676981 0.023576988057420603 0.035265866179008676 0.0006249158646289449 -0.2859590933205523 0.16012206577068544 0.19449229585931788
0.025679716044732695 0.23322838455044745 0.1449572829498255 0.14700812045573228 -0.0873503057590997 0.22782487922646077 0.07928420085565142 0.07014104057475148
0.1612208450968517 0.029339075518984285 0.010333062052643314 0.03600786987890534 0.24444894020537977 0.022250130336889048 -0.24322339730596626 -0.11843409436951435
0.25649399648259397 -0.16711015252904812 -0.31674342831182817 0.09761313981744965 -0.06468859087114819 0.025591359529909007 0.1321461456616993 -0.09419077746204656
0.06542225489663125 0.23048131728019144 0.07804963239165211 0.23571475479866727 0.29959837358436914 0.0816157035935595 0.2582930406274639 -0.13885944321319063
-0.1002676123146749 -0.1526854499663105 0.13429175192061968 0.24136604170992057 0.08520320979838963 -0.2183930435571854 0.07604522676727228 -0.17626255355537765
0.1890410093246791 -0.20815683437318688 -0.25337474904279433 -0.27116910137946915 0.18089912457238974 -0.2637317974864345 0.2417702815831012 -0.14807769325671097
0.21390213965128735 -0.2675229146982687 -0.0649724511122775 0.11341328457039823 -0.06457932498911192 -0.290928587145894 0.26121626204502696 -0.26119998086601093
0.019805942827930193 0.13823936686109517 -0.018705682684764264 -0.21320843375700976 0.0025640871666225314 0.13520602725214115 -0.1970068700934136 -0.08904867409338621
-0.2042968244125219 -0.02341490803445664 0.014471744425852882 -0.010244227406931268 0.1583943220876615 0.10724177829609144 -0.14586540001023723 -0.06381771071630168
-0.11541869209384896 0.20382315198805867 0.12281758951772018 0.033490599690033825 -0.10959994719503319 -0.2747282656163461 -0.04180484247993947 0.054578033998339597
0.17721424392775809 0.06661882641120738 -0.12698784134892696 0.23018802041019232 -0.08701869494887347 0.204249661138095 0.041580357837268905 0.17326748051796656
-0.16394639364251012 -0.08933601589010177 0.16754246783215007 0.2626319795806917 0.20117361931806735 -0.08887647357889047 -0.13298076531484312 0.02102840162882026
-0.202389216875608 -0.0865406316048005 0.01899033626939978 -0.2507866092863033 0.0030515526904783563 -0.248595248073562 0.06037909564466628 -0.04431901910219399
-0.11378015760003149 -0.18474286581266783 -0.2490685346753419 0.0687721501384034 -0.20302742156140413 -0.05497053448910879 0.10804246820410326 0.19617771304299048
0.2008769830312534 -0.1941813449891089 0.22325829381945736 0.24739112520038048 -0.22973488580455703 -0.1837203097991443 -0.30372457964384253 -0.1367548174576057
-0.27205284680656044 -0.19525375404163026 0.13576850244809763 -0.06317262171615114 -0.23587168081542342 -0.14831632621765128 -0.19193540769179313 -0.29269737470266943
0.1098817851123746 -0.14645973935723267 0.2450548728086634 0.05355600303135561 -0.1333342544636149 0.20609706132939878 0.25219491266087113 0.18643019131459126
-0.2477490897919986 0.04237917296862168 -0.20506067730126856 0.056161601161509804 -0.29217322995822614 -0.22026721091471801 -0.1069668142125197 0.00392863076940747
0.22983720544167308 -0.16515306874066765 0.010760904333375652 -0.25024146659094965 0.19122347326207087 -0.05355478338879882 -0.05571024566969944 -0.2767549095124074
-0.229993710051305 -0.2182308036719354 -0.05381469740584911 0.22657554645970754 0.04696903591598828 0.2680704347535219 -0.24855682129628895 0.3097225578618527
0.28629181484342253 -0.1130416502703402 -0.1702252726311547 0.27031320684507454 0.17493311342275744 0.19829920485648125 0.08374867666663649 -0.16816832157150663
-0.12576716533604243 -0.07513965011654929 -0.15933190577792744 0.07146913359674173 0.2971731569386718 0.21453052519118035 0.05467190569129419 -0.06869453819904421
0.21330238793738224 -0.17692998512357094 0.24739714827833315 0.20852370233925374 0.11762430268773981 -0.09421165515988923 0.27294371265877493 0.056180670954883764
-0.28851627616179665 -0.2844107855747069 0.16366287798817947 0.26682684901983306 0.004117607333746833 0.15219478455239807 0.0400324046525685 -0.2511819947926557
0.2007322848566939 0.27489233990454753 0.2667866416168438 0.270080730709706 0.022032809378209235 -0.1187651133319895 0.08626721848364177 -0.1602900746113527
0.2568567663918842 0.13369663760840705 -0.08264549989005733 0.23242873354588547 0.1612133006614835 -0.06206223571030521 -0.06894509236949196 0.016618012284719194
-0.2890530238950217 -0.07092234156562449 0.2412458519117149 -0.07439946771537204 -0.001322535993484638 -0.10241258755930177 0.00956069168483426 0.04305294710451612
-0.12354628928537395 0.1265689686477758 0.21252327096696405 -0.2314312885846189 0.04894020801314273 -0.13957505506190163 0.19933475463804398 0.2544607232103222
00000000: 1789 cf8f 0ebf b73f 4414 5a4a 06e7 bb3f
00000010: 0c3e 57c1 0dd5 c7bf 67c1 af21 d52e d03f
00000020: d89e a512 a7d3 b73f b4f2 fc47 9c96 9f3f
00000030: fe86 bb36 4c33 c5bf ebf8 628c 4a09 b33f
00000040: 3dbb 1d7d dd0a b33f 2fe7 b5b6 d544 b4bf
00000050: 2a23 144b 5c13 95bf 6875 0d8e 3e6d adbf
00000060: 560d d256 4d13 d43f 0633 f2d3 3f0e cc3f
00000070: 1ae9 0edb a2c4 be3f da90 638f 470d d2bf
00000080: e6d5 3af0 dea9 cd3f b84f 7cc0 5921 b53f
00000090: b886 362a 7cec 703f 9752 acc5 65f7 96bf
000000a0: b30f b6e7 f463 a93f 4c9a fc20 8616 bfbf
000000b0: 4dae 2724 1761 ae3f a5b4 f253 ac1d 803f
000000c0: 680f 5036 092f c6bf 1b78 ed54 3d4b b4bf
000000d0: 8447 94e2 9024 983f 28d3 ce1b 5e0e a23f
000000e0: 9f46 c599 2c7a 443f b18e 735e 274d d2bf
000000f0: e830 ed3d e17e c43f c215 05a1 1fe5 c83f
00000100: 94ad 5492 c84b 9a3f 8f50 127e 6dda cd3f
00000110: 0d13 cbd2 f58d c23f 4749 cd7e 29d1 c23f
00000120: 45eb 87f2 965c b6bf 0814 bf9a 5d29 cd3f
00000130: 75b7 c329 f84b b43f 5a3f 6063 c3f4 b13f
00000140: 4eee 8f78 e2a2 c43f 1e49 6507 100b 9e3f
00000150: 524c ab1c 8029 853f 6d9a 0e9f 9f6f a23f
00000160: e8aa dc55 1a4a cf3f 9fc3 83f8 bcc8 963f
00000170: be8b 86bc f121 cfbf b066 0c62 b251 bebf
00000180: 4ed6 a0cb 656a d03f ff8d f88f dd63 c5bf
00000190: 4b9f 743a 8645 d4bf a602 2dbb 2cfd b83f
000001a0: 9745 3776 6e8f b0bf a6ec f610 9f34 9a3f
000001b0: e268 f436 2aea c03f 23c8 c804 e31c b8bf
000001c0: e22b 364d 83bf b03f 9a59 076c 6980 cd3f
000001d0: 8a43 968a 0ffb b33f 6ec0 85ad e62b ce3f
000001e0: aeb2 1ea8 9e2c d33f f73c c649 c4e4 b43f
000001f0: fbe0 9188 df87 d03f bfb3 ab6f 25c6 c1bf
00000200: 3452 bd63 23ab b9bf a415 1763 328b c3bf
00000210: cf90 4fdd 7830 c13f 8f29 c11b 15e5 ce3f
00000220: dc2a 99a7 e0cf b53f 0542 e0a1 4df4 cbbf
00000230: 857a fb31 b377 b33f 57d0 8377 c58f c6bf
00000240: 7a7f 53ec 7e32 c83f 542e 0916 e2a4 cabf
00000250: 3658 31b9 4a37 d0bf e612 87a5 d55a d1bf
00000260: bbeb f4d7 b327 c73f 66a6 4755 fbe0 d0bf
00000270: 14a6 451e 54f2 ce3f 3100 e7b8 35f4 c2bf
00000280: cc60 2c33 2561 cb3f 80d1 636e 181f d1bf
00000290: 8b0e abd8 08a2 b0bf d86b 292c a708 bd3f
000002a0: 2a74 d348 4588 b0bf a4d6 d0ef 929e d2bf
000002b0: 25ac aa69 c4b7 d03f 0e43 e21f 80b7 d0bf
000002c0: f180 d952 0248 943f 4c15 d8db d3b1 c13f
000002d0: c58b 851d 9527 93bf e2de 1bf9 694a cbbf
000002e0: 68a5 cad0 4701 653f 6090 a25c 6e4e c13f
000002f0: 6abb 1168 8537 c9bf aeb6 fbd6 e4cb b6bf
00000300: caa3 c3f9 6526 cabf 57c3 fce0 13fa 97bf
00000310: 0c6c 33a8 5ca3 8d3f 2405 7ced ecfa 84bf
00000320: 558a 9ee0 4346 c43f aced 8b7a 3274 bb3f
00000330: 06ba 54a9 b7ab c2bf 669e 6e84 5b56 b0bf
00000340: 83e2 e353 148c bdbf a869 fa85 e016 ca3f
00000350: 3227 5a3a f970 bf3f 59c4 c80c ae25 a13f
00000360: 1893 d8fc bd0e bcbf fcf9 06dd 2595 d1bf
00000370: 3613 88be 7167 a5bf 0fa8 34ee a6f1 ab3f
00000380: 1c0d 07d3 f4ae c63f d5e9 bb70 ee0d b13f
00000390: d9a8 ca38 2341 c0bf 72df cb11 cd76 cd3f
000003a0: d72d f270 db46 b6bf 5652 6757 da24 ca3f
000003b0: 0454 224a 054a a53f 577a 24f9 a02d c63f
000003c0: caf0 7e07 32fc c4bf 3159 9aa2 b9de b6bf
000003d0: 23de 0316 0872 c53f 2bb3 cb5c f6ce d03f
000003e0: b1ff e4a1 0ec0 c93f 6eb7 67cb 9bc0 b6bf
000003f0: 571c 0383 8305 c1bf 03ba 2125 7888 953f
00000400: d69a c5cd e3e7 c9bf ae8e 84de 8627 b6bf
00000410: 5153 dee4 3372 933f a733 4a47 e30c d0bf
00000420: 8577 3ee0 91ff 683f cf5e 3516 f8d1 cfbf
00000430: d3d1 4f42 02ea ae3f 58fa 4483 fbb0 a6bf
00000440: a26b d347 b220 bdbf 43d8 6a7b a7a5 c7bf
00000450: 8a55 724d 7ae1 cfbf d654 b837 0d9b b13f
00000460: 6212 e673 cdfc c9bf 6bac bf0f 1925 acbf
00000470: c207 84d3 aba8 bb3f c0a2 dcee 591c c93f
00000480: 72b6 5144 56b6 c93f a55a 1c2f efda c8bf
00000490: 47f6 414f ba93 cc3f 0a34 072c 83aa cf3f
000004a0: 74f3 a3e6 f367 cdbf 5362 19a9 2584 c7bf
000004b0: 17f2 2338 3970 d3bf ca82 468e 2e81 c1bf
000004c0: 1158 f457 5069 d1bf 04d8 0334 13fe c8bf
000004d0: 76b5 ebbe dc60 c13f b900 46b8 142c b0bf
000004e0: 4cd0 9311 0b31 cebf baa9 4885 07fc c2bf
000004f0: de86 7de5 5691 c8bf 0246 fec4 8dbb d2bf
00000500: f3d6 7b71 3621 bc3f e828 5c57 31bf c2bf
00000510: a625 3844 f55d cf3f 495d 0c43 b16b ab3f
00000520: 58cb 2dcb 1811 c1bf 9511 1b75 6361 ca3f
00000530: 2825 8621 f623 d03f dc72 57cb f1dc c73f
00000540: 849c 22ff 3db6 cfbf 4d0f dd13 b9b2 a53f
00000550: f52e 5aa3 6d3f cabf 3f32 8fa0 36c1 ac3f
00000560: 36fc db58 f7b2 d2bf b442 a149 b731 ccbf
00000570: 0dd2 cc58 2d62 bbbf bf3b c3ca 7717 703f
00000580: 9854 6338 4e6b cd3f 66a0 895a bc23 c5bf
00000590: 1274 7f21 d009 863f fd1d c7c8 f403 d0bf
000005a0: 13ae f1c1 027a c83f c004 6656 886b abbf
000005b0: 262f 68a6 0d86 acbf 253f 5739 5ab6 d1bf
000005c0: 3960 7a13 6f70 cdbf e118 60aa fcee cbbf
000005d0: c2f4 cd9a 998d abbf 2b13 0f71 6d00 cd3f
000005e0: 881d 5e52 530c a83f c09d 92e5 1028 d13f
000005f0: cf27 55bd b5d0 cfbf 7368 3690 7ed2 d33f
00000600: f35b 77e7 9a52 d23f 213a ff2e 4cf0 bcbf
00000610: aba5 7315 f1c9 c5bf 06e5 c4c3 cf4c d13f
00000620: 99b0 9150 3564 c63f d537 d74b de61 c93f
00000630: c4d1 5da3 8d70 b53f f8b8 af20 8a86 c5bf
00000640: e2b3 0373 2319 c0bf 8d2a e223 5a3c b3bf
00000650: 4845 43e6 fc64 c4bf a4b1 7817 cd4b b23f
00000660: 313e 938f e204 d33f 254c d87a bc75 cb3f
00000670: 6d80 e8bd f4fd ab3f 3d8d fa1a f795 b1bf
00000680: fdc4 2c1e 7e4d cb3f eccc e449 a4a5 c6bf
00000690: 4453 7db2 b5aa cf3f 9b74 fe98 e7b0 ca3f
000006a0: b736 4255 a01c be3f 2d52 d049 411e b8bf
000006b0: 2a2b e1e7 e877 d13f df4d d680 b6c3 ac3f
000006c0: baa1 9ef8 0c77 d2bf 0013 ab4b c933 d2bf
000006d0: e0a4 43ba e7f2 c43f cf08 8feb b013 d13f
000006e0: 4220 61cd 9fdd 703f c71c 2363 1e7b c33f
000006f0: 8daa 8699 207f a43f b89f 3ea5 5d13 d0bf
00000700: 57fd 5a73 98b1 c93f 90e6 730a d697 d13f
00000710: cf41 3047 0813 d13f dd63 6bb0 0049 d13f
00000720: 12a7 dfce c48f 963f 2aa8 aaf5 6367 bebf
00000730: 24a8 1ac2 9b15 b63f e821 2a9a 6284 c4bf
00000740: 8134 da5c 5770 d03f b27f 0eaf f81c c13f
00000750: 697a 3067 4128 b5bf b179 9d88 39c0 cd3f
00000760: 87b9 022f a3a2 c43f ce82 6211 9fc6 afbf
00000770: c758 f2b4 62a6 b1bf ec4a 26ed 4f04 913f
00000780: fb18 1c41 d87f d2bf 5881 9471 f727 b2bf
00000790: 29d4 20e2 24e1 ce3f 8c65 adf0 d70b b3bf
000007a0: f045 bf35 1eab 55bf 7c14 441a b637 babf
000007b0: e373 e850 8e94 833f 8fe1 9e2f 090b a63f
000007c0: 9ad8 05c8 baa0 bfbf 39ec 8376 6933 c03f
000007d0: 5295 3869 f633 cb3f 5bfc de5b 8a9f cdbf
000007e0: 0574 c0e1 b00e a93f a504 6a6c 98dd c1bf
000007f0: e133 101e cd83 c93f 8882 13a1 1549 d03f

encoder.transformer_layers.0.linear1.bias f8 [2048]
-0.12406559697095583 0.14182612997923325 -0.08335787173308558 0.3261410644029069 -0.24004333737263178 0.22207565485679737 0.022621918193132067 -0.02073816727593596
0.16415477131594927 -0.1280414974729125 -0.25221854806034494 -0.23252350218099455 -0.31343051530246085 0.2674278509949089 0.00535209150413866 -0.2801016322660013
-0.005079632287837116 -0.08396450431360321 0.3229382829352017 0.035790843082357665 0.039399950412482114 -0.28700487405473474 0.08139891337675223 -0.06270189556383125
0.3060022961896821 0.1580234642724253 -0.004865765558546813 0.14256192834808504 -0.18431042033703088 -0.14728628740074498 0.06200206208346987 -0.24537460356027813
-0.21745605076717736 -0.06278405398459155 0.16209484199851573 -0.10923834414227253 0.27778239621347656 0.0998992223333337 -0.04488570986733156 0.009186083908483723
-0.11628696370926463 -0.18727181536737264 -0.02103376131193367 0.2222891647234986 0.30704895585149933 -0.20962311551368723 -0.15236369794388416 0.25676519373677426
0.2473284325330032 0.1259680286162361 -0.15001539856125698 0.18518611493964643 -0.1675590914657603 -0.3036703529355561 -0.1794741080409283 -0.024929910936462768
0.12699565637175925 -0.2702017878422453 0.09368390511754696 -0.2569775987935712 0.01298074443813557 0.13116884744763846 -0.2869763577108579 -0.1368228069921274
-0.27819276619420547 0.0005422564912951247 -0.2676640541681225 0.2689720416825505 0.1007303229918568 -0.18634649859398938 0.0787932983334686 -0.0033262502915895084
-0.14310577553981454 -0.005038458840233721 0.08119779746532374 0.0009512373315566197 0.14128089039853992 -0.0634294400424919 -0.21177590035599383 0.013548416790047393
0.06872315727324904 0.24073933007836845 0.08196990611072087 0.2558414810104072 -0.09389664957179049 0.13540409032380502 -0.13425542970583793 -0.029102414056565284
0.08753944260966093 -0.006967964962014406 -0.16683282540321437 -0.2907816396109216 0.22213505926999824 -0.19210677663433134 0.17744949681156333 0.11783488412296687
-0.21039506547612616 -0.028389234870758454 0.151750380318521 0.002490104953964589 0.2895365667125937 0.09082227232786702 0.09601378924340223 -0.05780130219909483
0.2299682452091829 -0.18721836248427928 -0.011282963433062518 0.23079560689734024 0.08528582667984834 0.16518971822067402 0.2914530721084973 -0.2218233870812632
-0.15753265409680184 -0.026986433440286107 -0.10220535746473208 -0.2210813302424409 0.24208174823662185 0.24931547262677395 0.05284399679668147 -0.20048992465393795
0.17947838500955163 -0.01123274088987812 0.05546445156002114 0.01691861526025454 0.18593413239867684 0.17035875723145066 -0.04201565857729504 -0.09051440163782336
0.1488226030815376 0.24099233383029767 -0.10927353171126743 0.07112306854431442 -0.28753112188069413 -0.28426764672311844 0.261557301218658 -0.23632389197870832
0.22328391084111168 -0.16829931832961464 -0.19285109423648153 0.28682701150103496 0.03357338420624499 0.13299549469849192 -0.23562650516057063 -0.1514290133191058
0.20970921933987913 0.049030099655824715 -0.02963516353913274 0.08931983673330332 -0.13417330667428984 -0.09090085168454004 0.2932812221112184 0.32307333808502503
-0.12163166734743726 0.3105407418726161 0.1316911307294555 -0.07372273104945672 0.2709466300830598 -0.26260267901304096 0.25831001789927704 -0.12522033112007416
-0.07147024804320974 -0.27616248992870285 -0.09825991090228357 0.04976463297567087 -0.18771945329805853 0.3022387002425346 -0.19931694937051403 -0.1954398134364928
0.20351260878148794 -0.022494669054803254 0.01672019866624333 -0.17388927000375848 -0.04634611436850285 0.307636031748628 0.2961913980657054 -0.1870802659942503
0.2714700249444786 0.08087257239086083 0.33413902346509844 -0.2773368922305025 -0.18566659244293374 -0.14711373350997942 0.05354793287655009 0.2505284237044295
0.15770302842291412 -0.059776726101980204 0.16435362507088253 -0.02662638819260368 -0.2295330682664073 -0.10227533094715521 0.02661452156031992 0.21842629057617055
0.10562974510374593 -0.19409799842623487 0.18584472536603683 0.3277744928044519 -0.1001504915913152 -0.1319584827660972 0.12246733805776237 0.29489436214037096
-0.14314097195168776 -0.060095704787341275 -0.1563544286818631 -0.2884619567594846 0.27671975743487076 -0.2899582951665609 -0.3167192357145114 -0.16621393714740565
0.2245943230934884 -0.016369997119324003 -0.10966271467927975 0.1547352064412373 -0.30097136330575697 0.23043866877079372 -0.2068524042782083 0.12538922562962623
0.0874075546956092 -0.03194582727396798 -0.005874972781940361 -0.19825231561388537 0.18195421740506704 -0.06470582589838622 0.32183277758241097 -0.15250135321146888
-0.022509062119699018 0.2788632417567347 0.26747184035018784 -0.0018530094387177313 0.03889788527131044 -0.10363468396595442 0.14700911637079142 0.14430586894175493
0.04579150430913412 0.1707697404827981 -0.13366134734311982 -0.1684195036407082 -0.31863608207616195 0.15073551037598718 0.20750383827247718 0.016605436613456943
0.2516144115380152 -0.000914476336340106 0.2728265674079664 -0.0022434868842943147 0.18347699545774449 0.1693526468175364 -0.04082532281558367 0.1166523503849167
-0.07127327632253092 -0.0010951651063074515 -0.22608623764471464 0.010506778183252987 0.3133642440509712 0.06531098314997623 0.07943829009113049 -0.2687063531047252
00000000: 6d89 8c51 c3c2 bfbf 9351 fdce 5b27 c23f
00000010: 1d30 f504 f156 b5bf 328f 5fc5 7edf d43f
00000020: d6ae d175 bdb9 cebf 5c82 6c9d f96c cc3f
00000030: dbc8 3f3b 332a 973f 0d9f ead8 623c 95bf
00000040: f165 2407 0603 c53f c8a8 16ee a963 c0bf
00000050: 4448 d743 5924 d0bf ce99 b582 54c3 cdbf
00000060: 45b8 32dd 3e0f d4bf 3103 84b4 891d d13f
00000070: ab8b 9b1f 13ec 753f 5de0 8865 2fed d1bf
00000080: 60da d468 61ce 74bf 3d41 0da0 b27e b5bf
00000090: 4951 f554 05ab d43f bcea 1169 2d53 a23f
000000a0: cfa4 f8f4 3a2c a43f 4ee4 f6b0 495e d2bf
000000b0: 0a12 e226 8fd6 b43f 6307 d83e 3b0d b0bf
000000c0: 82ad a8a7 8a95 d33f 0c7d 86e5 1c3a c43f
000000d0: 9f77 1aff 1fee 73bf b971 f421 783f c23f
000000e0: 7e6c d4dd 7b97 c7bf d789 c4ed 46da c2bf
000000f0: a8ba ddf9 bbbe af3f deb9 c75c 6f68 cfbf
00000100: 3d61 2e91 99d5 cbbf 7af9 92a2 9d12 b0bf
00000110: d7f0 9d16 86bf c43f c96c 8f4b 0bf7 bbbf
00000120: a20c c9d0 2fc7 d13f c047 d1d4 fe92 b93f
00000130: d338 e07f 42fb a6bf b4d4 b84f 27d0 823f
00000140: 291a 1582 fbc4 bdbf be92 3bd9 85f8 c7bf
00000150: 1c58 c9d3 df89 95bf f90c 5faa f873 cc3f
00000160: 01cd e9a9 b0a6 d33f 22f7 ce24 eed4 cabf
00000170: 1c20 e255 a780 c3bf 676f 7647 d76e d03f
00000180: 11d3 8c44 75a8 cf3f 27c9 9f69 b81f c03f
00000190: cbc6 5b5f b433 c3bf ec66 abb9 2db4 c73f
000001a0: c817 ff88 9372 c5bf 16df a7c6 556f d3bf
000001b0: 07dd 41f0 01f9 c6bf 583e a800 3a87 99bf
000001c0: b4e5 6cc7 6441 c03f 679a 8670 fc4a d1bf
000001d0: d634 a41c abfb b73f 30df a72b 5272 d0bf
000001e0: 7f59 b706 a695 8a3f d053 050b 24ca c03f
000001f0: 27f9 c515 d25d d2bf d265 b0e4 6883 c1bf
00000200: bd6c 3208 e9cd d1bf a63f b5f2 c6c4 413f
00000210: 03e1 bd69 6821 d1bf 6027 a482 d636 d13f
00000220: c02d f762 76c9 b93f bab7 97ba 33da c7bf
00000230: d878 7c2f cc2b b43f 07df 0f07 a73f 6bbf
00000240: d5f6 e740 4a51 c2bf 2b86 0eff 34a3 74bf
00000250: 90ec 9efc 60c9 b43f 611a 699d 8e2b 4f3f
00000260: e2de e701 7e15 c23f 5c0a 966a e93c b0bf
00000270: c912 0e03 791b cbbf cee6 34b8 45bf 8b3f
00000280: 866a f740 d797 b13f d815 c6de 8bd0 ce3f
00000290: d171 00d2 fafb b43f 0798 79f2 b45f d03f
000002a0: 5b64 1d5f 9c09 b8bf 4aba d7d5 eb54 c13f
000002b0: ecd0 f22b 482f c1bf 532e 6ef2 05cd 9dbf
000002c0: 1e5a 1e23 fc68 b63f c0ba 1ada 708a 7cbf
000002d0: 5ac7 802c c75a c5bf a2fe 1998 2a9c d2bf
000002e0: 7909 6eef eb6e cc3f ce01 7e71 f496 c8bf
000002f0: 35a8 bf44 aab6 c63f f3d6 a24d 6d2a be3f
00000300: c7d8 baba 39ee cabf 5140 504d 1112 9dbf
00000310: 72d2 4f74 8e6c c33f b388 e8ea 2066 643f
00000320: a7b5 4161 c487 d23f 3a87 65e1 2040 b73f
00000330: 7af4 c314 5c94 b83f 9dff 38dd 2198 adbf
00000340: 985e 2576 996f cd3f d552 0a74 c5f6 c7bf
00000350: a563 93b7 851b 87bf 489f d7df b58a cd3f
00000360: 5bfb 66bc 4ad5 b53f 0656 b2ca ef24 c53f
00000370: 1b95 41c9 2aa7 d23f b240 8070 b564 ccbf
00000380: 90ec b2ae 072a c4bf cd30 3fe4 54a2 9bbf
00000390: bc79 c95b 212a babf f3df 929d 644c ccbf
000003a0: 0341 d1e3 88fc ce3f b2cd a8c4 91e9 cf3f
000003b0: cb37 104c 5e0e ab3f 2e78 c862 a7a9 c9bf
000003c0: d93a fad0 25f9 c63f 38ba 21f6 3001 87bf
000003d0: 84ec 142b d665 ac3f c912 f20c 1d53 913f
000003e0: cc64 ee8c b0cc c73f 70b9 72d5 50ce c53f
000003f0: fecd 048f 1383 a5bf 4bf9 d9aa f32b b7bf
00000400: 8005 927a 9e0c c33f d6a4 3138 d6d8 ce3f
00000410: 21b0 04a5 59f9 bbbf 4b95 6315 1f35 b23f
00000420: 4bd3 43ef e866 d2bf b025 7fed 7031 d2bf
00000430: f3e7 b0d5 5abd d03f 41ef a77d dc3f cebf
00000440: 0d8d 6433 9194 cc3f c817 1502 d58a c5bf
00000450: 152b 5f3b 58af c8bf 3868 80ae 5f5b d23f
00000460: 6e1d 5dd6 8730 a13f 1868 1f12 ff05 c13f
00000470: 7122 de62 0229 cebf 7680 efa1 0662 c3bf
00000480: 2a03 5e6f c0d7 ca3f cf30 1525 791a a93f
00000490: 7b47 d928 ae58 9ebf 2652 a731 aadd b63f
000004a0: b8c4 1446 972c c1bf b4e4 2939 4745 b7bf
000004b0: fbe8 5f9a 1ec5 d23f 1439 52cb 3bad d43f
000004c0: 294a 6ac1 4023 bfbf 1dc8 9a46 e6df d33f
000004d0: b900 d445 41db c03f c947 d42e 7edf b2bf
000004e0: ffc2 ca88 3057 d13f e5fd 8c77 7bce d0bf
000004f0: 09d2 c6bd 2688 d03f c13d 7a45 3807 c0bf
00000500: 458b fbc9 df4b b2bf 9a0b a86f a5ac d1bf
00000510: 674b d5bf 8f27 b9bf 9a82 41fe bf7a a93f
00000520: 0d7c 5ee8 3007 c8bf 9724 48fd e057 d33f
00000530: 38dc 8ac1 3783 c9bf e2e5 85fb 2b04 c9bf
00000540: 1523 857f b30c ca3f a4ea b2af d708 97bf
00000550: 8809 d189 191f 913f 724e e5eb 0042 c6bf
00000560: 7acf 048b adba a7bf ed9e db09 4fb0 d33f
00000570: 441e 03c4 ccf4 d23f 770d 1604 3ff2 c7bf
00000580: 14c6 becf c35f d13f 65e8 8f9d 10b4 b43f
00000590: fb65 86a4 8862 d53f 9aac 863c e3bf d1bf
000005a0: d146 4043 ecc3 c7bf 8ee1 1b71 9fd4 c2bf
000005b0: 6a45 f278 a26a ab3f 6ada a15e a808 d03f
000005c0: d63d c7e2 9c2f c43f 4804 5717 0e9b aebf
000005d0: 4649 5422 8a09 c53f 07c8 fda9 f243 9bbf
000005e0: 3402 c7ee 5661 cdbf 2609 9b51 b72e babf
000005f0: 3511 cd4e d640 9b3f 4b3d 4e87 64f5 cb3f
00000600: 6a95 b40c 8d0a bb3f b4d8 ba05 34d8 c8bf
00000610: bd65 ca8c c2c9 c73f 0cb8 c3dd 41fa d43f
00000620: 3222 106e 76a3 b9bf 5b80 f4fb 03e4 c0bf
00000630: b348 c9fb 045a bf3f 2bbb 4a9a 8cdf d23f
00000640: fd04 a080 7152 c2bf b026 623d ddc4 aebf
00000650: acfd e202 6c03 c4bf 8c04 9b23 2976 d2bf
00000660: a8bf 15c9 c6b5 d13f 506f bc3c ad8e d2bf
00000670: b71b dac1 2045 d4bf 3900 1890 7f46 c5bf
00000680: 99e2 46bc 81bf cc3f eb6c 0de9 4bc3 90bf
00000690: 9559 230d db12 bcbf e93a 9afd 5cce c33f
000006a0: 9591 9b64 1d43 d3bf de5a 0da9 037f cd3f
000006b0: f1a7 bcbb 237a cabf 1ecd ac0f c10c c03f
000006c0: fd49 d76c 5760 b63f 8e4d c516 345b a0bf
000006d0: 6bc6 69ff 5a10 78bf 017e f5f5 5460 c9bf
000006e0: 71e0 8f9a 464a c73f 0620 189e 8f90 b0bf
000006f0: b7d3 9f81 e898 d43f ddca 5112 2a85 c3bf
00000700: f6c3 ab96 9d0c 97bf bcb5 d935 e5d8 d13f
00000710: 5beb b935 421e d13f bfec 0fbc 155c 5ebf
00000720: c067 3f72 6cea a33f 3775 5d7a cd87 babf
00000730: 5161 83d9 31d1 c23f b9e3 dc5d 9d78 c23f
00000740: dc7e e2ea fb71 a73f 2f90 4269 c8db c53f
00000750: c7fb c9a5 d01b c1bf 4b9c 1232 c58e c5bf
00000760: 97ee f597 8864 d4bf eb92 b41b 4d4b c33f
00000770: 9f5e 965b 7c8f ca3f 452c c3fc 0301 913f
00000780: 1084 3055 731a d03f 81e3 90fa 2ef7 4dbf
00000790: 64d1 1f90 fd75 d13f f16c 81d9 ee60 62bf
000007a0: e298 8797 2c7c c73f 0143 c9f7 58ad c53f
000007b0: dae2 ae84 0ee7 a4bf b69d e7ad eddc bd3f
000007c0: 8a50 e226 f73e b2bf a20d 2e94 74f1 51bf
000007d0: f23e 61d2 64f0 ccbf 4e99 77e5 9384 853f
000007e0: dcd1 fbe6 280e d43f 9be1 b278 38b8 b03f
000007f0: 4ad7 fd59 1156 b43f 75fb b321 7c32 d1bf

encoder.transformer_layers.0.linear2.weight f8 [8, 2048]
0.02807624648434797 -0.004811493750273332 0.0004603384799993161 0.0027310650310699903 -0.033338223476965335 -0.010209171259095961 -0.003327929660057406 -0.022068102103591735
-0.004899760562566582 0.007944632174855673 -0.012854908518822676 -0.007651880105824403 -0.016375116697826292 0.017951927959893414 0.008447923166645535 -0.01882855403309673
-0.0030237062735843714 -0.020739042625757473 0.002608223722645304 0.006817554070343356 -0.007264245385244141 -0.008731504607488085 0.0050432089023507536 0.01338196603949015
0.0194511682347994 -0.006131799192718232 -0.023272616325644212 0.0025912861435340327 -0.01963311728216456 -0.012602803360574158 0.00963672061663911 -0.017244944540323055
0.013490793295693625 0.00636866784329086 0.019631286422943834 0.016117753781703055 0.015407463199290029 0.017029427749864705 0.015597382490593344 -0.002904762331076888
-0.021047662054051793 0.013501788629638472 -0.01315581685103248 -0.023935892166294565 -0.018477013979233414 0.015167446709901234 -0.006347154458304146 -0.018092842130073315
-0.0039403092201016916 -0.016618341696592136 -0.007931026948934572 -0.003933988769608667 -0.011730071487719877 0.04128763975529219 -0.009910400555206237 -0.015918927409172865
-0.008055524800409452 0.004728006951474532 -0.02021580432624462 -0.006902532501010541 0.013502227961874506 0.006785516542161647 0.0021607331213706017 -0.008669311605465172
0.00982817045572884 0.02928142644944014 0.0009166877470033247 -0.001737736874448522 -0.002097854320001714 -0.012160736524405674 -0.007287739332937263 -0.0058177953540537244
0.013103406374874513 -0.009516187942514983 0.0014716214545717648 0.020363235413526713 0.0018535219313281642 0.006404726369825051 0.0011392752004482482 0.01705930254759262
0.01931565040383991 0.013398462206096322 0.005258666646065604 0.019481269059430074 0.021627338233422642 0.009267768131668772 -0.0018377047089482906 -0.015243435557699133
-0.017968521180974476 -0.02291436800164285 0.00565481431717073 -0.003846939882984033 0.004938707164632435 -0.0029636816927309352 0.008803848342985093 0.01614980409237714
-0.0036915647284840158 0.014747217079935298 -0.011364771489114541 0.02180518900918019 -0.022705600232922493 0.010239078132960254 0.004019601135472864 0.012486227926834625
-0.00040443465848245385 0.014528621428872296 0.00040779008054270667 -0.010633299470087586 0.009101179214209365 0.01014111398288102 -0.0020601697926790853 0.013578942243702305
-0.016645073252273893 -0.01208412990542644 -0.0031542451380508992 0.01266124885459993 -0.00830851635107935 0.005972748734632464 0.006056812043819503 0.025792536705870013
0.010055115215913296 -0.021249880134934132 0.014277398472790628 0.0006398382747709712 -0.010552270419146638 -0.018957839750449436 -0.0006457350905606413 0.008563156960442537
0.0006397011128207635 0.011731341077965456 0.0005882434381371819 -0.02459515129260575 -0.015059364368723198 -0.011049773482653779 -0.0214151342919004 -0.0125581065726756
-0.004469120323668206 -0.0006592393161392457 0.006550058451965599 -0.0007169214027126897 0.011861110563437199 0.00815631993691843 -0.025800864292882825 -0.005802921814692945
0.01877168553572214 -0.02496381060960925 0.008777370119314336 -0.0081096910672482 0.013308575241889543 -0.01338962322064705 -0.0060813905302856365 -0.0067220442567879546
0.01724655486064247 0.013341948330250233 -0.012011618726302107 -0.026191780724821766 -0.006528906740189913 0.004985296411430669 0.012094177989129363 -0.022021424051023197
-0.003471237737813496 0.035084339318700794 0.015133629918181419 -0.006790683867396571 -0.022682359513377756 -0.01409813205284882 0.009600860542785217 -0.018448675116548262
-0.005829499726455196 -0.021849433155569437 -0.012891331796140637 -0.02105751867562735 0.006357642384369571 4.242811164119619e-05 0.019480055962077684 0.011639078873704304
0.01818383576420091 -0.018155616398522586 -0.012782065172912162 0.018321528281591035 0.0009943625392329423 0.011054166281596035 0.025914452267566584 0.0010094245675079504
-0.01751971953139831 0.013656434571125114 0.03084208015482498 0.0132196240049937 -0.016219076079749168 -0.0025776195747285132 -0.022819898016489478 -0.005645237412477257
-0.012027556393998936 -0.00445948921418008 -0.020757879086401983 -0.011021397235584533 -0.003628652980027919 -0.01535190874350399 0.004659090415891789 -0.016720059405023312
-0.026442174957892625 0.023871291469932637 0.021295666831359167 -0.008636375377693548 0.008384832799006725 -0.012345591220296647 0.014260708495753014 0.006783504763573183
0.01573500328354308 -0.006579010385175578 -0.021493823270806428 0.002439141357978411 0.016979934807291576 -0.00760082057500913 -0.00169852786816504 0.0032494310569315824
-0.001880022315312012 -0.006901809440543461 0.003685077646204797 -0.003194912939467193 -0.014905369935954715 0.0014464703403993533 0.01133471260273984 0.0191667797901485
-0.009141244731824073 -0.017743384676855187 0.012749596239452854 -0.0015918513111239556 0.024052404959756787 0.00491685511219695 0.010876191843490469 -0.0024343669197226703
0.02797816516404961 -0.002523791943546709 0.005980191777959711 -0.004699005134802105 -0.0031524953636396275 0.008629891641290433 -0.004196059751557498 0.021954685405800707
-0.007323415264065101 0.004013279285942209 -0.0024506765101427685 -0.010586236477603251 0.004618404242606773 0.018175112604298372 0.00339133088072602 -0.03092758579484957
0.00605067565600478 0.00041092368516905186 -0.0196887017775226 -0.007114454414391143 -0.008885613593110122 0.009328929641292167 0.01744206896411722 -0.009024884245153889
00000000: ee61 c701 05c0 9c3f 735a d684 37b5 73bf
00000010: 87d3 78b7 322b 3e3f cdf6 bb5f 755f 663f
00000020: eda2 1427 b511 a1bf 13a9 6ac5 8be8 84bf
00000030: 83eb b4a1 2c43 6bbf 7363 4743 0599 96bf
00000040: 83c3 fd75 c511 74bf d541 f57a 4645 803f
00000050: cf89 739d ac53 8abf 7e3a ebec 9357 7fbf
00000060: b8cb bd7a a3c4 90bf 7e99 f37d fd61 923f
00000070: b547 c20d 254d 813f ec64 36df ca47 93bf
00000080: d020 d9f1 2bc5 68bf 8cd9 4f97 9d3c 95bf
00000090: 8f78 dc72 d75d 653f 8c58 553c b9ec 7b3f
000000a0: 5c81 c105 1dc1 7dbf 8e4d dfb5 d2e1 81bf
000000b0: 6c02 d714 30a8 743f 3c62 f713 0168 8b3f
000000c0: daf4 bfcd 01eb 933f 8a4c f94f a81d 79bf
000000d0: f342 0bd8 c6d4 97bf 66bc b627 523a 653f
000000e0: 64eb 9432 b41a 94bf b534 2ca2 7fcf 89bf
000000f0: bcfc 1cbf 6abc 833f f2bf 49a3 a8a8 91bf
00000100: 194d 04a0 0fa1 8b3f 2d43 b241 0816 7a3f
00000110: 55e9 a854 391a 943f d273 8225 2c81 903f
00000120: 9a33 71b4 f28d 8f3f de63 058d 2970 913f
00000130: a437 9a3d 85f1 8f3f 743b de66 bacb 67bf
00000140: f2b7 b7b0 848d 95bf 837d d064 d3a6 8b3f
00000150: 2fd0 04d9 6ff1 8abf 2522 3888 a682 98bf
00000160: c3fc 126b a3eb 92bf 87ac a93c 1c10 8f3f
00000170: 8921 234d 79ff 79bf d91f f614 ee86 92bf
00000180: 828e c8b3 b623 70bf fb07 6708 6604 91bf
00000190: 8d77 f46a 243e 80bf 4f99 bb11 161d 70bf
000001a0: 4222 5b8b ef05 88bf a6bd f44c a723 a53f
000001b0: 95ef 3272 e74b 84bf 396e 7022 0d4d 90bf
000001c0: e61a 8f3c 6a7f 80bf d1a1 b5b3 ac5d 733f
000001d0: 8833 c6a9 73b3 94bf cf67 9f75 d445 7cbf
000001e0: c2b4 275c 0ea7 8b3f 882b 293a 21cb 7b3f
000001f0: 76f7 eec2 62b3 613f d52d 984e 37c1 81bf
00000200: 10b5 7eb5 ca20 843f cd1b ec43 f3fb 9d3f
00000210: 2e5a 6ff2 bb09 4e3f 5629 dec2 9878 5cbf
00000220: 9c1a 47f6 842f 61bf 163c 576d bae7 88bf
00000230: 913d 8ca1 bfd9 7dbf 28da 7c8c 66d4 77bf
00000240: 8530 c56e f5d5 8a3f 0b2d f71f 397d 83bf
00000250: 4f1f 3f81 6d1c 583f 2640 9198 19da 943f
00000260: 4052 f504 3c5e 5e3f 178a c5a4 d73b 7a3f
00000270: b64c 886e 77aa 523f ab4e 236a fe77 913f
00000280: 0c50 245b 7bc7 933f 895c ef27 a770 8b3f
00000290: b626 3f94 1c8a 753f 6ab4 fad5 e5f2 933f
000002a0: 79f8 a519 7a25 963f d269 42c8 fafa 823f
000002b0: 1c12 fa67 e41b 5ebf fe8d 9749 f337 8fbf
000002c0: e1ae 510b 5766 92bf 4ac7 b334 dd76 97bf
000002d0: 724b eaa8 8029 773f 2e47 961f 9e83 6fbf
000002e0: a21a 1b1c 9c3a 743f 9ae7 457e 4a47 68bf
000002f0: 034f b285 c007 823f 0d7e a701 9389 903f
00000300: 5cfd f4b8 c53d 6ebf 36ce 85f8 c933 8e3f
00000310: 8b63 face 6946 87bf c9c9 b576 1954 963f
00000320: 4ced be09 2340 97bf 992c c7cd 39f8 843f
00000330: 9d95 b776 db76 703f c0ed c424 6192 893f
00000340: b054 ada1 4981 3abf 23ce 248f 2ec1 8d3f
00000350: 4b98 3f0f 95b9 3a3f ace2 c74b e9c6 85bf
00000360: b3f8 a398 a3a3 823f 583c 3647 ddc4 843f
00000370: f6ca 473c 7de0 60bf 98cb cec6 46cf 8b3f
00000380: d43b 08f5 670b 91bf 9793 f475 90bf 88bf
00000390: 7592 c476 eed6 69bf af62 0e0e 24ee 893f
000003a0: 51a1 0c30 0e04 81bf 5e34 b887 e176 783f
000003b0: a5ee 561a 07cf 783f 02c6 87d6 5b69 9a3f
000003c0: 4331 14b8 c697 843f 44d3 e450 87c2 95bf
000003d0: fbcb 19fc 773d 8d3f 6adf 803b 5af7 443f
000003e0: c14e cac2 6d9c 85bf 6a88 ec16 af69 93bf
000003f0: a967 448c d128 45bf 0ad2 c378 8f89 813f
00000400: a880 ecad 33f6 443f b608 25f2 9906 883f
00000410: 04ee 182a 8b46 433f 0f85 c4a9 782f 99bf
00000420: 299d b2ab 71d7 8ebf f9bf e37d 43a1 86bf
00000430: f150 b155 d9ed 95bf 680e 3c88 10b8 89bf
00000440: 0bda 1c5a 364e 72bf 8085 caa6 199a 45bf
00000450: 3dc7 68ed 3bd4 7a3f 6cf6 3dfd f87d 47bf
00000460: 03b0 b64f a34a 883f 3206 14bb 42b4 803f
00000470: f5c7 62b1 8a6b 9abf 4547 a5f6 cdc4 77bf
00000480: 97ec dd7d e238 933f f773 9bf8 1c90 99bf
00000490: 7cd6 dbac def9 813f 6be2 504f d09b 80bf
000004a0: fab6 5cbb 8641 8b3f b320 b5ce 046c 8bbf
000004b0: db88 11d7 cce8 78bf 3736 ec03 9388 7bbf
000004c0: 9069 61b4 14a9 913f ae5f f2fd 0553 8b3f
000004d0: 52d9 cf2c 8c99 88bf 4367 8ca6 04d2 9abf
000004e0: 0310 d80e 0ebe 7abf a272 c450 766b 743f
000004f0: ba85 7b17 d5c4 883f f024 71c0 c88c 96bf
00000500: 8706 f091 b66f 6cbf 1e80 f313 93f6 a13f
00000510: 6afe 8b6c 61fe 8e3f 090e 0c52 8cd0 7bbf
00000520: ec6a 3961 0b3a 97bf ff3a d040 7bdf 8cbf
00000530: cd95 5bb0 9da9 833f 86d3 1ea1 35e4 92bf
00000540: 07ac d56a ace0 77bf c573 5ba3 b25f 96bf
00000550: 3300 bb43 c566 8abf a6d9 2f28 1a90 95bf
00000560: acb1 eda1 780a 7a3f 98a9 c0d0 9a3e 063f
00000570: 5e20 206d 94f2 933f 42eb f1b8 3ad6 873f
00000580: 613b b18f c89e 923f ff76 aeca 6297 92bf
00000590: 4edc 24bf 7b2d 8abf d9f1 20f3 e0c2 923f
000005a0: a322 87a5 a84a 503f b4df 4f15 91a3 863f
000005b0: d88a ee73 5189 9a3f b89d 5560 d589 503f
000005c0: 4296 b079 b0f0 91bf 5050 e79e e7f7 8b3f
000005d0: 301e 6cf6 1095 9f3f d889 22e6 e312 8b3f
000005e0: 05df 55c5 bb9b 90bf 75b4 ccf8 a81d 65bf
000005f0: af2b b76e 195e 97bf 8f32 09e1 751f 77bf
00000600: 9e77 e74a e7a1 88bf 28ec 4e05 1d44 72bf
00000610: 72de 3daf 8d41 95bf 5ce8 76e5 6292 86bf
00000620: 278d 163c d6b9 6dbf 374f e04f d270 8fbf
00000630: b61f 720f 6915 733f e3b6 5331 101f 91bf
00000640: ac8f b752 a813 9bbf 48e2 b440 b771 983f
00000650: d84a 5902 88ce 953f 32e6 6cae f2af 81bf
00000660: 4db9 3b35 112c 813f 39e2 5334 a548 89bf
00000670: 453c dbe4 b734 8d3f 2cf6 c931 05c9 7b3f
00000680: 8965 0532 d61c 903f 5b27 1ca7 97f2 7abf
00000690: c874 0e10 7a02 96bf 135f 9c0b 40fb 633f
000006a0: 6afb bd22 3063 913f 1ec9 adbc 0922 7fbf
000006b0: e989 4969 24d4 5bbf 6216 d803 8d9e 6a3f
000006c0: 947d 0a97 62cd 5ebf b425 495d 1245 7cbf
000006d0: 894e 28ff 2a30 6e3f 41a3 d5d2 372c 6abf
000006e0: 8614 47e3 b486 8ebf 0224 a0b3 efb2 573f
000006f0: 67b1 815f a736 873f 4929 79d1 74a0 933f
00000700: b4e4 5719 a5b8 82bf 1938 a163 522b 92bf
00000710: 13d2 15d7 751c 8a3f 545c 9154 b514 5abf
00000720: 3ceb c492 31a1 983f e734 7f3e b223 743f
00000730: dab8 2ec2 4146 863f 2944 d0c9 3cf1 63bf
00000740: 01d7 86e1 4ea6 9c3f 3d8b 807b c6ac 64bf
00000750: 7527 c381 af7e 783f cf1a 0b96 433f 73bf
00000760: 499d 9a0f 43d3 69bf ad5d f072 8cac 813f
00000770: afe2 7a36 e32f 71bf 225e 3fff 497b 963f
00000780: fef2 dd50 28ff 7dbf 107f 8674 3a70 703f
00000790: 3339 daee 7013 64bf fa16 ac9b 3cae 85bf
000007a0: 2e42 e872 bfea 723f bd41 f228 7f9c 923f
000007b0: 85cf 1fe7 22c8 6b3f 64e8 2126 7bab 9fbf
000007c0: dcda fae0 97c8 783f d9d0 f8c9 27ee 3a3f
000007d0: e7cc f068 4629 94bf 557c 9ed0 0b24 7dbf
000007e0: 7b64 4cde 9e32 82bf 7d70 babd 0b1b 833f
000007f0: 3412 1a6f 55dc 913f 7508 7775 a37b 82bf

encoder.transformer_layers.0.linear2.bias f8 [8]
-0.00687790588461417 -0.01651697592493468 0.01243106875078939 -0.013158732304434392 -0.01617108788377867 -0.00886813134176106 -0.022504698549869494 -0.00708188427047683
00000000: b81d 6ecd 012c 7cbf d2a5 b47d d3e9 90bf
00000010: 0f68 e9cd 7575 893f 6b23 3c27 f7f2 8abf
00000020: 4a02 6856 278f 90bf dd49 b770 7429 82bf
00000030: 66b3 1cc1 780b 97bf 6e40 5fd5 e401 7dbf

encoder.transformer_layers.0.norm1.weight f8 [8]
1.037210655341146 0.9779519426459389 1.0391021115928807 0.9613378352714935 0.9895216754693759 0.9351996206389761 1.0051851478763543 1.015549723999429
00000000: 150c 3c33 6a98 f03f ce2a 57df 614b ef3f
00000010: 79ef 2789 29a0 f03f 83c0 5c90 47c3 ee3f
00000020: fc5e 5a5c 29aa ef3f 4408 3cc1 27ed ed3f
00000030: a2dc 8805 3d15 f03f 47a1 4011 b13f f03f

encoder.transformer_layers.0.norm1.bias f8 [8]
-0.0011319189773548008 -0.004299951047052362 -0.004380411009066111 0.0056135297993023005 -0.007668211571594086 -0.005579916087518746 0.005381283571000532 0.0007770313343763059
00000000: b252 53bf 9c8b 52bf 64a0 f151 d39c 71bf
00000010: c27f 6ea0 31f1 71bf 0433 736e 36fe 763f
00000020: 406d b3de b368 7fbf 0fdc c351 f7da 76bf
00000030: f8cc 2a4f af0a 763f a582 a515 3676 493f

encoder.transformer_layers.0.norm2.weight f8 [8]
1.0049490808519395 1.0011299529571753 1.0112917686558265 0.998525099913501 1.0071764588163137 0.9797314265254776 1.0026094000936092 1.0008023377646105
00000000: 2d78 c67c 4514 f03f 11f4 6fd7 a004 f03f
00000010: ce73 1147 402e f03f c5a2 0be9 eaf3 ef3f
00000020: aeac fe0f 651d f03f 934a 79b8 f559 ef3f
00000030: 1707 8127 b00a f03f 7d59 e74f 4903 f03f

encoder.transformer_layers.0.norm2.bias f8 [8]
-0.0030472986867720307 -0.006294391009024539 -0.006346599848688952 0.001948271731069649 -0.002642352945531281 -0.001635119439759254 0.0020310376758885555 -0.0023191386075591463
00000000: 3d32 6d06 a6f6 68bf 1d0f 83b8 25c8 79bf
00000010: 3699 a76c e4fe 79bf f836 98d7 a4eb 5f3f
00000020: 0598 896f 6aa5 65bf 1f58 3421 30ca 5abf
00000030: 46e6 a20c 65a3 603f ceef 2d0f 96ff 62bf
