data/current_dataset/models/switchtab/epoch-last-42.pth (torch, 862450 bytes, 44 tensors)

encoder.transformer_layers.0.self_attn.in_proj_weight f8 [24, 8]
00000000: 5ad1 cfcd 16db d6bf f7cf 40a3 268f c23f
00000010: 92db 8975 f34f b03f 9c3a b808 1636 a5bf
00000020: 586d 39c7 958d dbbf a74a dd02 0af8 d63f
00000030: a625 6c90 ee73 d6bf e448 4cd4 cf0c 83bf
00000040: cfe6 ed25 e9f8 d6bf b92e 1a7d c60d b13f
00000050: dbf5 7d23 7b34 c33f 43da 7065 7678 e03f
00000060: 251c d402 755b d93f d54c 604b 642b c53f
00000070: 6201 814a aebd da3f 2079 7d8f 8acd e03f
00000080: bead 39d9 eaa0 cbbf ad03 f4f7 8133 d1bf
00000090: 3986 ffc2 a635 c63f 02b0 2bd7 5e1b d2bf
000000a0: ac3d f4fd 10a3 9dbf 237c c5d9 6a08 acbf
000000b0: da48 1a88 b229 dcbf 2e63 19e4 69bd c5bf
000000c0: fd0e 8132 c622 cc3f 3a22 9df3 76d7 d93f
000000d0: c2b7 788a c3c8 b4bf 5375 5b65 f9c7 acbf
000000e0: 4503 8a74 bec5 d73f 40cd af66 2fcb c6bf
000000f0: d826 f8fd b976 d0bf 28f8 2707 3d59 de3f
00000100: d664 ae93 85b5 d23f 622d 4339 dbe6 c7bf
00000110: 9931 183a 5085 b1bf 719b 39eb 781b b8bf
00000120: a5a3 18f1 5b37 d53f d9b0 be12 7dcf cfbf
00000130: 5df5 76c7 a33e b33f 6716 0ccc 63df c93f
00000140: eefe 8869 9a7b b63f b7b1 d1b8 121e c43f
00000150: d760 0923 51db debf 2ca7 d3be 5814 d8bf
00000160: ae8c 378f f2bb d03f aac8 65ab e634 d9bf
00000170: 9c2a b97c f1ae d4bf 218f d8d7 d09f cc3f
00000180: 45bb 5c9a c6ef c93f 9189 87ef 6625 c93f
00000190: 43cc 2d85 51bd cdbf e374 53dc 07e0 d43f
000001a0: e020 651b 988b c53f 7877 a92a edff c23f
000001b0: 279d 0ad6 9c2a b33f 367b 878b cf43 de3f
000001c0: 408b b8d1 3d38 c2bf 1248 efd4 4737 c13f
000001d0: 4311 20b9 e0c4 d2bf d6f7 ea49 63e6 ddbf
000001e0: 90c3 05ce 0790 ce3f f038 d798 06e8 a1bf
000001f0: dea4 f22d 54e5 d0bf 3872 ef44 c848 ae3f
00000200: 4a6b bdfb a542 d53f ce8d 0db0 5e19 cbbf
00000210: e2f5 4c55 3571 d5bf f517 9461 0b76 ccbf
00000220: 1c8c 330b f8df 90bf 61fb 1fab eb03 cbbf
00000230: d1ee 1747 cfc7 d53f f40c 89ef 72cd d7bf
00000240: 1c0c f306 65fa a2bf 78a2 a896 c876 d8bf
00000250: 14b9 4161 01a0 dabf 9c33 fd1a 4c86 dcbf
00000260: 8f55 ea57 1ef7 79bf 8877 872e a1a1 d83f
00000270: 2775 4bcd b9b8 d5bf 4e79 2a91 1fdb babf
00000280: c68a 325b c2c7 a6bf 6d77 81b0 7d93 d0bf
00000290: e4ca 6c24 f3b5 d93f 2339 bed7 973e d23f
000002a0: 55ad 5836 5a2a c7bf 8085 052b 23e7 debf
000002b0: a8e5 74ea 0fc4 c03f 509f ed17 0326 b8bf
000002c0: f050 9979 ac3d b73f e771 288c 7a94 d03f
000002d0: 2510 d93e 8a44 d43f 7383 940d e96d d3bf
000002e0: b56d 9a73 56dc b6bf 2a52 823f d0b4 d13f
000002f0: 9f2b 889d 7cf6 d43f cc05 f910 a6cf c13f
00000300: 1639 6d6c 7e73 bf3f fa95 658d 4193 cf3f
00000310: d1e0 118f 4697 cb3f 0a8f f95c a3b8 cfbf
00000320: e961 28d4 ac87 d13f 5718 eb85 c92b c4bf
00000330: 93d6 4490 e50e c1bf 4437 b390 141b b93f
00000340: aa39 3af9 e3c9 c7bf 4542 7c1f 67c8 c03f
00000350: e9ca 56be 04f4 cf3f 953f 61b3 22d4 d7bf
00000360: b896 f880 f39e c03f 8702 e44a 79c8 cebf
00000370: fcb9 9402 a1e2 d43f 3af9 7f97 505c c5bf
00000380: e1a9 4666 20b2 de3f cffa 2be2 ae74 b83f
00000390: 2117 d3be fd8a babf f477 5b72 ce02 b0bf
000003a0: 0394 2e57 a409 c63f 53a6 be5f 5a07 c53f
000003b0: 66cd 9ef6 f653 debf 0f88 64a8 3a4c b83f
000003c0: 9825 7364 9304 b03f 0074 c3cd 9450 94bf
000003d0: 115e 34f2 1cdc c0bf afe3 1d80 7fd4 d6bf
000003e0: 73ee 3aa6 aaf2 a0bf a384 02a1 7433 933f
000003f0: 12e2 56b3 4a1d d63f 8d46 fe69 c57e c5bf
00000400: 1608 9270 e336 c3bf 371e da1f 20be b6bf
00000410: ceb7 5c77 d735 d0bf 79dc 9176 9058 d0bf
00000420: 43fe 1e02 a309 923f 46af e084 1be8 c53f
00000430: 4066 715b c24f 803f 3a0f 48ce 11c8 be3f
00000440: f5a9 6ce4 cf3c b53f 388b 2ca0 1ca5 dbbf
00000450: 2f84 6128 724a 9abf b881 834a 7724 b43f
00000460: e9e8 6216 86ca d93f 4350 8314 8b1c a23f
00000470: 4feb 31f2 2210 d1bf 8a9a b533 a5b8 babf
00000480: f3ea aff1 bce2 bc3f 5237 97c3 5f90 a0bf
00000490: 4010 8252 3f93 cbbf 492f f76e 9371 bfbf
000004a0: 5ceb e977 423e d4bf 5e1b 5bc5 3ac2 cbbf
000004b0: 0be0 fae3 6440 cd3f 947f 4523 3ecc d1bf
000004c0: 95d9 f701 5e17 d33f 52df 7a5a 6dcf b7bf
000004d0: 2366 e05f 7333 913f e5df 9dcf 18a9 d63f
000004e0: b115 2c4f 7574 b2bf 7f36 4e9d 8737 dbbf
000004f0: 9ffb 1ada 95f3 ba3f 2908 1477 7448 d1bf
00000500: b805 b4f1 7b58 ddbf 3b5c 8d6b e063 b13f
00000510: 9e8a 82d5 32a2 aebf f97a 0596 b469 d5bf
00000520: 4a18 300f 6ea0 c83f aa93 15f9 03a6 bd3f
00000530: df52 2d6e 8dde ae3f 6bb2 b484 ca55 ddbf
00000540: 449f b57b 8073 dabf 54fb 8b12 9753 d63f
00000550: e9cc eea8 7392 c13f fe3e afd7 e099 ca3f
00000560: c682 bd63 1293 b0bf 7ab3 201a 0682 abbf
00000570: 72a1 577c 1a27 db3f 1351 4238 b9f8 c7bf
00000580: e6c7 c0d3 937b c0bf 831e 9a49 e0d0 da3f
00000590: 5fc3 bc85 e009 d63f 5446 0ed9 2329 883f
000005a0: bada 746a e8ed ca3f d7d8 1146 2f66 b43f
000005b0: 449e 0090 0d8f dfbf 3b03 b5bb e5ef dc3f
000005c0: 23fc 31e8 93f6 c7bf 0998 5841 4950 ca3f
000005d0: dddc 7f02 e4e1 c93f f703 8e2c 7ba4 adbf
000005e0: 22c1 9d04 775d dbbf f217 4714 be99 933f
000005f0: 36e9 6883 4a2d dd3f 3acb de1d 4a19 bebf
-0.3571221361046547 0.14499361964556076 0.06371995563118407 -0.04142826897088023 -0.43051666694164714 0.35888910560349035 -0.35082592109446364 -0.00930178038246194
-0.3589423056033469 0.06661644510512134 0.15003909333238039 0.5147048932329387 0.3962070968268015 0.16538671188809553 0.4178271987512031 0.5250904848615257
-0.21584830862717114 -0.2687687798898491 0.17351231118577617 -0.2829205609584734 -0.02894236135494814 -0.05475171955435367 -0.44004500666882296 -0.1698429454579808
0.21981122461340155 0.4037759188691187 -0.08118841295865223 -0.05621318208953121 0.3714443338467855 -0.17807571901321673 -0.2572464924020159 0.4741966791042409
0.29232921049113025 -0.18673267646804975 -0.06844045084307594 -0.09416919462965524 0.33150385422282574 -0.24851954856183658 0.07517455692046356 0.2021298166584302
0.08782353474179747 0.1571677591740703 -0.4821360437540653 -0.3762418616812393 0.26147140489610876 -0.3938538240246411 -0.3231776922226943 0.22362719096519704
0.20262987649172196 0.19645392127774788 -0.23234004023433572 0.3261737491246334 0.168322575928193 0.1484352548895307 0.07486896730062097 0.47288883806133997
-0.14234135380055513 0.13449952981187657 -0.2932664687980557 -0.467186758218188 0.23877046165173654 -0.034973341138185066 -0.26399712073414416 0.05914903489585693
0.33219289382912065 -0.21171172710738378 -0.3350346882833418 -0.22235243095946058 -0.01647937363021522 -0.2110571466036744 0.3403204149505941 -0.3719146098339501
-0.037066609476390705 -0.38224997246519576 -0.4160159539959676 -0.4456968558850407 -0.00633918621919828 0.38486508888114956 -0.33939976738277483 -0.1049060563477486
-0.04449279177904013 -0.25900213467490724 0.4017303329193693 0.2850703818193258 -0.18097999242432175 -0.4828575058109763 0.13098334262921907 -0.09433001836953037
0.09078481644366199 0.25906242072394864 0.31668335092058647 -0.303583396207663 -0.08929958650917665 0.2766609783368802 0.3275443590543378 0.13914943531749058
0.12285604617247645 0.2466813984312209 0.21555406556922788 -0.24782220878397992 0.2739059516766518 -0.15758627928716137 -0.13326711220149842 0.09806946308819159
-0.18584870976742468 0.1311158088433492 0.24963435453317764 -0.3723227264172178 0.1298508052579359 -0.24049297482271845 0.32633233310744436 -0.16687972447830096
0.4796219824590065 0.09553044339916571 -0.10368333729556102 -0.06254282276083228 0.17216924912386852 0.16428689646754666 -0.4738747986222819 0.09491316424512795
0.0625698204268218 -0.019838643130118072 -0.13171731783289478 -0.3567198516025724 -0.03310139922311075 0.01875097496725132 0.3455378295289232 -0.16793124843075127
-0.1501125621471721 -0.08883858468663496 -0.2532862344404493 -0.25540553645209446 0.017614886288127584 0.17114585865180681 0.007964628615968583 0.12024031912011149
0.0829591686894345 -0.43195262567512627 -0.025674613680511434 0.07868142670805056 0.402986070501028 0.0353740179577078 -0.2666098942933574 -0.10437996399341834
0.11283474827352417 -0.032351486802879706 -0.21543113259042634 -0.12282678088302847 -0.3163000269921008 -0.21686491619604004 0.22852765209040657 -0.27809098667602794
0.2983012217731809 -0.0930088373087277 0.016797831274834373 0.3540708568102658 -0.0720895117084044 -0.4252642666041097 0.10527931761588015 -0.2700472987054377
-0.45852564433888743 0.06793024659906248 -0.05983122688600882 -0.3345767464688119 0.19239593259425397 0.11581444579276359 0.060291690539690405 -0.45836127242618
-0.41329967576028914 0.3488519364472513 0.13728185414002006 0.20782099276993188 -0.06474413809838628 -0.05372637814466592 0.4242616857796043 -0.18727793929122835
-0.12877128448013692 0.41899878680894903 0.3443528467205876 0.011797218381420262 0.21038537214345415 0.07968421421705628 -0.49310626089797815 0.4521421750142058
-0.18721245610865464 0.20557513895727222 0.20220613596004613 -0.057895516575634014 -0.42757964564136064 0.019141168582585473 0.4558893473910247 -0.11757338742499437

encoder.transformer_layers.0.self_attn.in_proj_bias f8 [24]
00000000: 5207 badc adb6 81bf 31df 69f6 eabe b6bf
00000010: 5f0d c4a7 a68e b13f d2ed 9370 725f 85bf
00000020: 9577 4d2d e0b1 b0bf c357 6a53 cc99 b53f
00000030: ab8a 5939 b919 c3bf 80ac fa3f 6dd6 ba3f
00000040: 08df e8e9 fe7e c03e 02b3 f13d 9cf4 bebe
00000050: 9492 2e89 5e27 c3be 64c5 7d64 575f bf3e
00000060: 5c99 98ea 3d50 c0be 3ee0 dfe0 0216 bfbe
00000070: 56b0 6008 f4cd bebe 7859 c41e 0b16 bfbe
00000080: e57f 108a dfbe b6bf bafa 8ed5 42dd abbf
00000090: 110e d3bd 691f 82bf 51be a652 4b34 b73f
000000a0: 4601 949f b693 b33f aac4 02db 5234 b33f
000000b0: 5ebc ffbf 2751 a8bf d2b5 5354 29e1 c13f
-0.008649214075606846 -0.08885067478138066 0.06858293147893367 -0.010435957012751827 -0.06521416765232708 0.08437802349575833 -0.14922251987726062 0.10483439266197259
1.9664856403498248e-06 -1.8450921215565248e-06 -2.2833092514099754e-06 1.8699423822400732e-06 -1.944714161056212e-06 -1.852868880101665e-06 -1.8360915716815309e-06 -1.8528763759455209e-06
-0.08884999390329502 -0.05442246300616689 -0.00884897814319799 0.0906416966233732 0.0764726771922187 0.07501714560455022 -0.04749416559922602 0.13968388192681275

encoder.transformer_layers.0.self_attn.out_proj.weight f8 [8, 8]
00000000: d456 7d7a 5ec2 d03f ce4a 57d0 e559 ca3f
00000010: 6b76 6cc6 f2e8 c13f bd1b 7891 aa1d d9bf
00000020: c2a8 a7a0 8349 9abf b792 0805 0b54 b53f
00000030: c889 9089 fc42 8abf f492 e935 62ed d2bf
00000040: 7acc a161 81cf dc3f 4de0 360a 53d8 d43f
00000050: 0fb4 0071 1ac9 cb3f 573c f4a5 6511 b03f
00000060: 0351 57a9 e196 b43f 3c3b d1dc 43bb d9bf
00000070: 8bd3 7b6c ae49 d13f 0a84 7acc 0ded cebf
00000080: c942 87a9 bab8 b1bf f31b 4fb7 8f6c b63f
00000090: c41c 2d84 f966 d23f 165f 73e8 d848 98bf
000000a0: 812b 4d8d f4df d83f 4a8a cff1 f402 c93f
000000b0: 47a2 3c38 fcb9 c53f ce83 424f cefb ab3f
000000c0: 9104 db7e 281f babf d617 6037 9c89 c4bf
000000d0: da6f 1305 c798 d0bf ba2e 2d52 5b3c d23f
000000e0: e86d e897 4e63 d23f 921c edab 359b 823f
000000f0: 5746 b494 88d2 d6bf f617 b4f3 8a06 d53f
00000100: 20d5 40a5 8b2e c03f ba67 bf76 cbb2 95bf
00000110: 22ea f7ab 5611 b73f 41ab cf9f adec dbbf
00000120: f376 15f1 d90c c1bf 1ae4 b1dd a73e bbbf
00000130: 3d00 cf86 c04d d23f e1f6 a8cc f912 c7bf
00000140: 2c05 8560 8de2 cdbf 680e 6f0d e483 cd3f
00000150: 16cb f297 fb1d 9e3f cb9c f87e b4a2 d9bf
00000160: 221b 421d 896c c2bf 4e4d ed13 707e d9bf
00000170: 989e 4f3a ffc8 ce3f 0c5c 4e38 22da c5bf
00000180: 44d2 4d4e b9a6 d5bf f02e b6a9 d9e2 ba3f
00000190: 01e0 8636 eb79 c7bf b3fc 81bd 0580 d43f
000001a0: 93ee 961c 1ecc d53f f0af 07f6 0410 d0bf
000001b0: 1a57 101d 4722 d5bf 53ff e137 5165 d33f
000001c0: 2594 35e2 1170 d5bf c771 390d e810 aa3f
000001d0: 18d2 4bb0 ab77 c93f b2dc d354 6158 b83f
000001e0: 990d 48f6 ad82 b7bf a613 2441 ade4 b03f
000001f0: c506 0f6d 39e4 843f b676 2dd5 39c4 d63f
0.2618633457362709 0.2058684603967635 0.13992151917129844 -0.3924356861684222 -0.025671059303854056 0.08331364510429294 -0.012823079059732914 -0.2957387472618358
0.4501651242673642 0.32570339200492954 0.21707468526565818 0.0627654581223721 0.08042726883224209 -0.40205475391569556 0.27012215227232933 -0.24160931095414667
-0.06922499312282605 0.08759401536291005 0.28753507526239397 -0.02371539038435263 0.3886691455742764 0.19540273482478404 0.1697383188814163 0.0546555015328135
-0.10203793618258518 -0.16044953063845807 -0.2593247937745652 0.28493388199852243 0.28731121859320163 0.009085101422569051 -0.35659994623083463 0.32852433966797834
0.12642045563703963 -0.02118986046102809 0.09010831545303025 -0.4363206921249692 -0.13320469161674672 -0.10642480051491568 0.2859956089487275 -0.18026659482159516
-0.23347632611152258 0.2305874887079995 0.029411250256724385 -0.4005557289078296 -0.14393724373459188 -0.39834215112678784 0.24050894114701715 -0.17071941136666202
-0.33830101630090703 0.10502396005011483 -0.18340816652721517 0.32031386858575245 0.3405833510584923 -0.25097774530763584 -0.3302171500994163 0.30305891473107244
-0.3349652012896647 0.05091023599081584 0.19896455867969176 0.09509857483850473 -0.09183776152354141 0.0659893306765996 0.010200928345401103 0.3557266790211132

encoder.transformer_layers.0.self_attn.out_proj.bias f8 [8]
00000000: 7843 356e ffe0 b0bf f875 0968 1f4c b5bf
00000010: 0e44 172a 1884 b13f ea38 2e64 05f4 9e3f
00000020: c068 cacb 8b08 b5bf c3f5 3ec3 b62b a9bf
00000030: 6cf0 8877 0e07 af3f 3e08 6db1 1664 a43f
-0.06593319359423144 -0.08319278993572954 0.0684218504677718 0.0302277414698943 -0.08216165280683452 -0.04916163571713696 0.06060071190992819 0.039826115759311595

encoder.transformer_layers.0.linear1.weight f8 [2048, 8]
00000000: 921b f3ae 5cd5 b73f 298c 810e 0a85 ba3f
00000010: 9472 9bb9 8c15 c8bf 764a b7f6 081c d03f
00000020: e799 ed19 6717 b83f cf8d 3f0a 91b5 a03f
00000030: 1da8 0527 6f2a c5bf 8eaa adb3 bdf9 b23f
00000040: 9fff b23d a913 b23f 49c8 248f 0502 b3bf
00000050: 6046 d440 0c47 97bf 1088 ed2e ca00 acbf
00000060: 5de0 15b3 80c9 d33f 8de7 88dc 193f cb3f
00000070: 049c 65d4 c112 bd3f 9390 85c7 a19b d1bf
00000080: 049e d6c8 a1da cb3f cb42 39d0 5d9b b33f
00000090: 2696 2bb6 4ca1 7b3f 1ced bb4c 9993 93bf
000000a0: 59a6 9a9d 1bfc a93f 5995 7f47 70e1 bdbf
000000b0: f93d 395d 5386 ac3f 1ca7 1246 c45b 823f
000000c0: 4bd6 774d 7b33 c6bf d787 cafe 99a2 b4bf
000000d0: 59ea c628 b2b1 9a3f 4f3d eff3 28b2 9e3f
000000e0: e848 da2e 487d 71bf c6e0 1b92 ecb1 d1bf
000000f0: fd89 9b4f ede1 c43f 7ddc 387e f2f4 c83f
00000100: 5803 915e f648 a03f d797 00d9 0f69 cd3f
00000110: 8f11 bbcd c12f c23f af67 ead1 eac1 c23f
00000120: 3db2 0bfe 0a86 b7bf 1dd3 79d3 f5bd cc3f
00000130: 6192 eeb0 db80 b43f dd22 335b 4a54 b23f
00000140: 7356 a12d 18f1 c33f b5c1 ea1c a676 9d3f
00000150: f4d6 7d4a 3fac 833f 9e29 7c1a 86aa a33f
00000160: 358c b44b 729a ce3f d4ea d5af 8d04 983f
00000170: 7bf4 08fb a90d cfbf 7a08 409d 7011 bdbf
00000180: afee 25d7 c41d d03f f80d 93f4 6dd9 c4bf
00000190: 7eda 2e0a 4313 d4bf 1ba4 99ed 7339 b83f
000001a0: dc8e c589 e244 b0bf 7848 956a ee2b 9b3f
000001b0: a0ca 3980 8283 c03f b6c9 be5f 2532 b8bf
000001c0: 8a0e 9c49 3bf3 ae3f 3dcf ea96 31c6 cc3f
000001d0: d175 dc10 7ac7 b23f c5eb 9432 7f15 cd3f
000001e0: 94b8 5d76 4fdf d23f 3992 8990 3f6e b43f
000001f0: d742 4dc9 a41a d03f 7329 42ee 0e11 c1bf
00000200: 9ce2 71bd 1d6e b7bf 0716 8be6 5f26 c3bf
00000210: 3b24 e433 dd95 c03f 2f88 942e 2165 ce3f
00000220: 0578 0bec 3b3a b53f 1650 42f6 a594 cabf
00000230: 2246 adb0 0fb5 b23f 996f 299d a0fc c5bf
00000240: 6edb df1c dfff c63f 4471 0680 d906 cabf
00000250: 088f 4ff9 0c4e cfbf 4000 dd02 fc82 d0bf
00000260: 7017 16f6 105d c63f 83ec b3f0 5e16 d0bf
00000270: a17f 7200 ceee cd3f 4191 e21e 27a1 c1bf
00000280: a928 297a fe52 ca3f 20c4 9537 b8b3 d0bf
00000290: 773b 227a cded abbf 9125 b745 9d26 bb3f
000002a0: d0d1 1665 e544 b2bf d2c7 c2ee 8a21 d2bf
000002b0: cdee 8973 6e73 d03f 3167 c585 5250 d0bf
000002c0: 4f6f 66cb 1e4f 933f 972b fd7a 8624 c13f
000002d0: 927b 69df aaae 85bf 264e 1a82 b9ef c9bf
000002e0: fc2a 18ca 508e 793f 7e85 30de 94a5 c03f
000002f0: 19c7 ff2f b464 c8bf c894 aeab 0f97 b5bf
00000300: f50f a3a2 fcbd c9bf a809 e743 368b 9bbf
00000310: 33d7 4a6b 03f8 8b3f 9eb6 26d3 6c21 7dbf
00000320: b720 d53f 3e3b c43f a180 f3a0 668e bb3f
00000330: 73f6 fad9 f68b c2bf a277 033b edae b0bf
00000340: e2d3 41d9 d8be bbbf 84d8 556d f3d9 c93f
00000350: e814 7549 7ddc bc3f 2471 ce84 715a a03f
00000360: 9716 ecf0 ae6f babf da30 ce6c 4ce0 d0bf
00000370: 2e1d faf4 c9eb a4bf 4289 02e0 e265 ac3f
00000380: 52ee d8b4 a2f4 c63f 5fbc e08d bf36 b13f
00000390: 34ad 4481 9d64 c0bf de7c 6b25 7070 cd3f
000003a0: 9ec5 4760 ae6f b7bf 0b8d 1a3e 64e8 c93f
000003b0: 9ac0 15bb 45aa a63f c868 6b08 42a6 c53f
000003c0: 35c5 41df 5399 c4bf b1e1 7d5a e529 b7bf
000003d0: 45ba 7033 ffd0 c43f f697 434a 73b1 d03f
000003e0: 5f2e 4028 517d c93f e700 66cf eacf b5bf
000003f0: 1560 1fa7 35a1 c0bf 5bf5 5d88 aa89 983f
00000400: 7df6 4410 1b01 c8bf c641 7625 db00 b7bf
00000410: 41e0 df1b c337 963f 9e97 22c3 8bb0 cebf
00000420: 0834 ccc1 c4c4 58bf 494d 9070 9a5e cfbf
00000430: cd92 6c49 4a07 b03f 160b dc3f a9da a2bf
00000440: e8f2 c195 4231 bcbf 44bf 5e54 d544 c8bf
00000450: 0d7d bdfa bdf0 cfbf 4407 be0d 4b17 b13f
00000460: e808 8956 4ffa c7bf 68d5 5c75 6e15 acbf
00000470: d1b5 65e6 2d99 bd3f 28bc 2a07 c058 c83f
00000480: f454 5352 d180 c83f cdeb 19a9 31d8 c8bf
00000490: 3a23 b2d0 a428 cc3f dfb8 2523 d61c cf3f
000004a0: b46a 3390 b30b cdbf 498b 1a08 b438 c7bf
000004b0: 5ffe ad91 001b d3bf ffc9 7a68 cfe4 c0bf
000004c0: bbf0 492c 439a d0bf e064 8539 0daa c7bf
000004d0: 5604 3f51 29f0 c03f 813a 30f7 bdd4 adbf
000004e0: 5f44 95da 0879 ccbf 30fe 9885 7ff9 c2bf
000004f0: 1101 6131 b56c c8bf bbb4 e55e f54f d2bf
00000500: 6d98 231a 1b01 bb3f e6ad 8acd 1991 c1bf
00000510: 5005 4cf1 2208 cf3f 0af1 95a8 e3db aa3f
00000520: af9c a849 d01d c2bf 2497 87fd 2434 ca3f
00000530: e778 853e 00bb ce3f 8b5e 4a12 bbaa c63f
00000540: 3770 632e 4152 cebf bcd4 2a4c 0d2f a93f
00000550: 6987 61c9 09ef c9bf e624 047e 4750 ac3f
00000560: 4377 afe2 7300 d2bf a69c 040f 6521 cabf
00000570: f912 b353 43b6 babf 5217 35c9 d202 3a3f
00000580: 25b0 1daa 927b cc3f 8e2d 1ee6 d153 c5bf
00000590: 892c c428 b61a 893f 2f2f 6bb4 fa45 cfbf
000005a0: cf0e 5a97 af26 c83f 8f47 9aed e771 abbf
000005b0: 590d c575 4777 aabf 3ebd b26b bc4b d1bf
000005c0: 5ecb b0b3 7589 ccbf 5627 39f8 41e6 cabf
000005d0: 9679 9cee af2e a9bf d7f9 dca9 f33e cc3f
000005e0: 12a4 57f3 5c95 a63f 18cc c9fb 3e9d d03f
000005f0: 129f 643a 15ac cebf 9dfb 2e47 1c6d d33f
00000600: 8ea9 a36b e8a8 d13f 89d1 500b 2c2d bdbf
00000610: abac 7e01 2851 c5bf 082d e51f b122 d13f
00000620: f8fe 7305 4ad2 c53f 2073 9488 ca1e c93f
00000630: 373b 3699 9d68 b53f 70cc 6085 458d c4bf
00000640: e186 0fbf 1950 bfbf 6fbc 5126 f54a b1bf
00000650: 5a09 8580 33b9 c2bf 095b 1475 d24a af3f
00000660: b5e6 dee4 e16c d23f 8cc0 c9bb cc5e ca3f
00000670: 1a1c 9b0b a217 ab3f d6b2 4253 529a b0bf
00000680: fef4 f8ca ec9f c93f 47d7 029a a764 c6bf
00000690: 805c 0b2f 600f cf3f 6291 d254 46ce c93f
000006a0: 417e 4982 235a bc3f 8a46 5e64 a66e b5bf
000006b0: e215 e04e d94a d13f 8025 bf4c 93f6 aa3f
000006c0: 9789 485d c015 d2bf 5efc 803f 7e5d d2bf
000006d0: 681b 0f79 ed1e c53f 1252 87a8 4ffe d03f
000006e0: 8b39 adde 95bd 653f 09c1 0d93 6950 c33f
000006f0: 4774 94b0 b613 a53f b4c4 3517 9765 cfbf
00000700: 899c b36a 81e2 c83f b446 3a9a 284c d13f
00000710: daf3 0e4d 29e5 d03f 6f3c 6909 04bb d03f
00000720: b445 7b56 46f3 8b3f 144e 50ad 9d5b bfbf
00000730: e715 d755 0f2f b73f de51 1934 0449 c3bf
00000740: 1b1c 3d1f 5ec1 cf3f 7901 9071 4538 c03f
00000750: 244b 0398 bddb b5bf bf03 fb0b cf7e cd3f
00000760: 240e c14c f8d3 c33f edaf bca3 1e5f acbf
00000770: 54b5 31bd 7696 b1bf ed9c 591c 5346 943f
00000780: b258 e7fb 9811 d2bf e0e3 2260 8517 afbf
00000790: 42c1 8482 be68 ce3f 18ea f953 4751 b4bf
000007a0: 240f 65ec 108f 693f 9565 cdc5 d366 b9bf
000007b0: 2d2b 0e1c ce8f 643f 94b0 7623 d2e4 a33f
000007c0: f94c ae86 8aaf bebf e6cc 3c05 d453 bf3f
000007d0: 450a d012 52d7 c93f 08be b613 0ec2 cbbf
000007e0: a9e9 751f 3d76 a93f 13fe 7ccd 0479 c1bf
000007f0: dc10 b3a8 8c44 c83f 958f 8b2a 9677 cf3f
0.093099396431269 0.10359251836921203 -0.18815764487125775 0.25171112149579444 0.09410709746371247 0.03263524293995667 -0.1653574886834698 0.07412324558905878
0.07061250454262201 -0.07424959892958428 -0.022731963593349724 -0.054693525532243936 0.3091737507707018 0.2128631903486248 0.11356746135207635 -0.2751240204290834
0.21760961824951164 0.07658945401750399 0.006745624212930268 -0.019117732342221236 0.05075155543211158 -0.11672116990628946 0.05571232331260129 0.008964093578771641
-0.17344609530089125 -0.08060610266195965 0.026068481196242697 0.029976501358587367 -0.004269868817248425 -0.2764846255154335 0.16314474474991406 0.19497519648732356
0.03180665878654193 0.2297687348920465 0.14208242936559798 0.14654288530146917 -0.09188908293044391 0.22454712701769433 0.08009121961237887 0.07159867025906004
0.1557951185993037 0.02877292205329392 0.009605879269411123 0.03841036866477342 0.23908833214326966 0.023454870087770655 -0.24260449178283125 -0.11354736174692617
0.25181694994510456 -0.16288542215453083 -0.31367565149722754 0.09462666083130993 -0.06355110038344541 0.02653477216274111 0.1290133596517835 -0.09451516711741345
0.06044945977739953 0.22479839200024712 0.0733562747158978 0.227218532274348 0.29487978514851787 0.0798072555422288 0.2516262021863844 -0.1333330787059129
-0.09152398944014312 -0.14960860020634945 0.1295734885573284 0.23746123098777747 0.08291983139812949 -0.2076613857685749 0.07307527602576916 -0.17177207635802175
0.17968357953915465 -0.20333403350094603 -0.2445694176996016 -0.2579946544610756 0.1747151567071188 -0.2513654089559127 0.2338502409156691 -0.1377304936223798
0.20565777745134042 -0.26096921375489224 -0.05454866519823203 0.10605795814549014 -0.07136377065655286 -0.2832972842835463 0.2570453766163439 -0.254902487407537
0.018856507458266333 0.1339271641284909 -0.010587058012957038 -0.20262831547425825 0.006239238342014227 0.1300531468305443 -0.19057323783595662 -0.08433626119092985
-0.201110438740329 -0.02689823903507152 0.013656641685297543 -0.007111954781448352 0.15805795780966544 0.10764161519500927 -0.14489637034960232 -0.06516916933784825
-0.10838084510926607 0.2019638332237187 0.11273940127746906 0.03194002863094372 -0.1032666528882039 -0.26369009614496763 -0.040861426500720874 0.05546483025070127
0.17934068518103402 0.0672416421300439 -0.1280705338661875 0.22999383761541642 -0.09154786921114641 0.2024045279732508 0.044267825210114256 0.16913628970252703
-0.16092918778626034 -0.09048303088446265 0.16262807857261144 0.2608307099566213 0.1991368719612749 -0.08520381511152984 -0.12991972599297755 0.023962654660399135
-0.18753374380496615 -0.08985681213949367 0.021697090698552527 -0.23976275470812153 -0.0015117570357603433 -0.24507456299088862 0.06261123936253483 -0.036824502034525405
-0.11012664943877903 -0.18960062617906648 -0.24953436606572446 0.06676167569642383 -0.18732635236126005 -0.05485100920342739 0.11561858057913034 0.19020843839595725
0.19143120307732142 -0.19409771687409574 0.2199903506300645 0.24306751934222512 -0.2269195989709566 -0.18141794582069284 -0.2985230848935085 -0.13198273278756287
-0.2594154293544865 -0.1848770647873499 0.132329144164063 -0.05826371805607256 -0.22244368241311727 -0.14823907874414166 -0.19081749831276132 -0.2861302782756174
0.10548562420044201 -0.13724062477318383 0.2424358061034959 0.05245887215548535 -0.14153483959782906 0.204716323655867 0.24008181622315947 0.17708528893557615
-0.2368852116113673 0.04918710284020153 -0.20260736783080383 0.05529998219760461 -0.28127762925383964 -0.20414412720967795 -0.10434361260838533 0.0003968968023467706
0.22252114588207053 -0.16662048088288056 0.012257979506577381 -0.24432309922701154 0.18868060007309004 -0.053603408579092286 -0.05169127762430987 -0.2702475597133861
-0.22294493936496002 -0.21015190716053195 -0.04918432033285851 0.22067113679982128 0.04410829992759359 0.2595975359792546 -0.23962655402396443 0.3035345740462903
0.2759343196072671 -0.11397052074682369 -0.16653919289578786 0.26774242510573787 0.17048001543297864 0.19625217122020278 0.0836275576641413 -0.16056126606563081
-0.12231598772589393 -0.06755001245049795 -0.1462768914735289 0.06111772231286323 0.2878956542077547 0.20601805848446408 0.052914680401549855 -0.06485476048210201
0.20019302283063917 -0.17494673748086084 0.24265672967041851 0.20160750524258747 0.11075040751301747 -0.08371963453671519 0.2701934118525441 0.05266247093056631
-0.2825776015253267 -0.28695636941478664 0.16500633631786887 0.265521921709735 0.0026538779397135607 0.15089149170263053 0.04116602807537411 -0.24528778680136087
0.19441240034140986 0.2702733522538481 0.26398689770922845 0.26141453665781617 0.013647603525359077 -0.12249169808665555 0.09056182714183302 -0.15066578430072658
0.24808861279800073 0.1267172626976494 -0.08538422547580332 0.23043239674555413 0.15490630862960686 -0.05541320561164285 -0.0687021457576596 0.01979951725516298
-0.2823240718838732 -0.060726325974833406 0.23757153866746178 -0.07936521339608082 0.003119977048443705 -0.09922526911886671 0.002509977872653299 0.03885513956933653
-0.1198660448847483 0.12237286689633073 0.2018835632189441 -0.2168595882662745 0.04973021515884863 -0.1365056994782071 0.18959196316985227 0.24583699300194142

encoder.transformer_layers.0.linear1.bias f8 [2048]
00000000: d3d3 84e8 242d bfbf 6598 454c 75a4 c13f
00000010: 9593 5b36 a8bb b3bf 1bcf 1309 bca2 d43f
00000020: 8c2d 0ac3 2809 cfbf eea2 bd6c 3fd5 cb3f
00000030: 4341 cd0b 2120 983f ef42 3613 6523 96bf
00000040: c9a1 d198 d57e c43f 3b0f 7b25 c004 c0bf
00000050: 884c 90f4 649f cfbf 399c e2c4 0737 cdbf
00000060: f5c4 7575 39ff d3bf 3222 1b9b e19a d03f
00000070: 0195 4ee6 5d56 773f 2cfd ea44 a2c5 d1bf
00000080: d67c 1016 03d7 76bf e056 3d19 ce7b b4bf
00000090: 9cb5 7412 3970 d43f 03ae dae3 9717 a03f
000000a0: 72f2 0817 054c a33f 7744 36be 9794 d1bf
000000b0: 5a34 5774 4d95 b43f 5e5d 92aa 2763 b0bf
000000c0: 7dd8 adc4 a93d d33f 1d65 eb3d fb44 c33f
000000d0: c234 d6f3 c8ea 75bf 961d e992 471c c23f
000000e0: 732b 9262 2926 c7bf 2065 9a37 4e08 c2bf
000000f0: b723 5974 307a ae3f 9994 2c6f 96e3 cdbf
00000100: 9b54 8823 8a46 cbbf 5687 9b5b 5a1f b0bf
00000110: d2b0 1d14 88f9 c33f 9d90 9f41 6fe6 bbbf
00000120: 5e15 6f9f eb6d d13f 93c3 010c f3ba b83f
00000130: fb17 ef13 9e29 a6bf dddd ed0f 0350 823f
00000140: 8549 7e0b 2155 bdbf f722 b03e 7ca6 c7bf
00000150: 83f5 3e80 5a9c 93bf b866 e822 78cc cb3f
00000160: 9653 02d2 fa2c d33f 5237 0c19 58c8 c9bf
00000170: 151c ac50 a63c c3bf 5757 bd00 d943 d03f
00000180: 46b1 739c c70f cf3f b187 d7cb 6e46 bf3f
00000190: a147 fbc4 ee50 c2bf a6ad 151a 9a8f c63f
000001a0: 5119 9eec 9f7a c5bf 27f9 5601 4368 d3bf
000001b0: eceb 5b36 b470 c6bf ad53 7947 8a7d 9abf
000001c0: 21a0 7d42 8cdd bf3f 6c41 a67e 023e d1bf
000001d0: cffe a4c4 387b b73f 82b5 fff8 d68f cfbf
000001e0: fef6 4395 6caf 8f3f 3bac 496f 4f25 c03f
000001f0: 9784 6109 0111 d2bf eb00 1f82 8399 c1bf
00000200: 28de 8479 c082 d1bf 408b 3701 f7d8 fa3e
00000210: d3bd ac2a 24cb d0bf 45d8 30f4 c8da d03f
00000220: 9838 e221 09ca b83f 7fdc 5c64 3487 c7bf
00000230: 173d 4192 c5ff b33f d896 77c9 fde0 60bf
00000240: 4a57 58c3 414b c2bf 06f4 7082 8617 78bf
00000250: 7481 8b65 74ab b43f 4b30 1e25 902a 223f
00000260: a750 db76 b9b8 c13f d3c4 9018 afaf afbf
00000270: 83a5 025d 10f7 cabf a2f7 918d 83a7 8c3f
00000280: a546 9cba e71a b13f 5243 a7d1 09eb cd3f
00000290: 7e15 ff2f 0305 b43f b114 c2c7 712d d03f
000002a0: b7f7 6c86 4d9b b6bf 96c9 0662 ef1e c13f
000002b0: e8c0 976d 77d8 c0bf 3eca a797 4499 9bbf
000002c0: 150c e8d0 fba3 b53f 8dfd 623b e201 81bf
000002d0: 2d68 e98e e9e7 c4bf caa7 545c f377 d2bf
000002e0: de89 ecf3 7fab cb3f e945 0efe 70d2 c7bf
000002f0: d5f3 81eb b793 c63f 21ed 23a3 6fa4 bd3f
00000300: 2fc7 27cc c780 cabf b55e 57f5 3fd7 9bbf
00000310: c1e6 7a13 6361 c23f 2696 2875 bdcc 633f
00000320: 00c6 a4e7 5107 d23f 5c17 f6ea 16ad b63f
00000330: 99f2 c35a 4e1e b83f fa3f bbe6 ec51 aebf
00000340: 4c54 8dfd ddb2 cc3f a249 5e53 4dc1 c6bf
00000350: 3d7b ab61 9616 8bbf 4ed9 a2c0 ed37 cd3f
00000360: f2ae f233 20d4 b43f 8757 5d96 8766 c43f
00000370: d43c 24b2 986a d23f 54c5 c05e c889 cbbf
00000380: d473 accf 2e61 c3bf 0141 4bf8 3f8d a0bf
00000390: 2b99 7930 753c b9bf 96ca e643 d0a0 cbbf
000003a0: 74ce 3fb2 9a64 ce3f fd3a 10ae be32 cf3f
000003b0: afb5 8c1b 7f2c a93f af38 fd6b b37d c9bf
000003c0: 757f ee88 9e86 c63f f73e 2477 a3a6 8dbf
000003d0: 1c9b aff8 442c ac3f 967a 26cb 7aee 8e3f
000003e0: bd63 b1c0 bf6d c73f 7c8e 6819 fc11 c53f
000003f0: 3875 7471 6143 a5bf 678b 7258 6f5d b6bf
00000400: df75 45f7 3ad7 c23f 43eb faa2 a084 ce3f
00000410: 07ab 0788 e432 babf f8df 1a46 3673 b13f
00000420: cef1 dddb ef01 d2bf 297c ab80 3b91 d1bf
00000430: 43c7 0cb9 a24c d03f 629b e424 3131 cdbf
00000440: 3243 aa7a 8f16 cc3f e6e9 fe03 dde6 c4bf
00000450: 7a5e 4e7f 5112 c8bf d348 8ece dd17 d23f
00000460: 93b9 d66f c70e a33f eefd 0923 5204 c13f
00000470: f12e 0926 f4db ccbf 1f57 01b0 1226 c3bf
00000480: aa55 fa51 9b70 ca3f 506a eb97 c1d4 a83f
00000490: 7118 f58b 9955 9dbf 193f 8f83 58af b53f
000004a0: df91 669a 9110 c1bf 21ed 3b01 48b3 b6bf
000004b0: a626 43d3 207d d23f f9b5 128e 6d81 d43f
000004c0: adb8 7b60 e435 bfbf aca4 d173 55a5 d33f
000004d0: d9e2 7478 3222 c13f ec52 1340 574e b2bf
000004e0: 7a96 12cb c1f2 d03f d9d4 bd34 c97a cfbf
000004f0: 5505 8e71 f868 d03f 1c9a bdb3 53eb bfbf
00000500: 7bbb 9079 f208 b2bf 8194 04ac 5947 d1bf
00000510: 7a84 05fa a387 b8bf 83b7 0649 90d8 aa3f
00000520: 76d6 4d18 7281 c6bf 3123 06ba 7b03 d33f
00000530: 9a6c 6e58 0c1d c9bf ddbe b934 ae11 c8bf
00000540: 6a0a c806 1142 c93f 1d66 967d 5418 93bf
00000550: de11 9495 2db6 903f 9823 3ce9 cac6 c5bf
00000560: 7a19 fb6a fc4f a5bf cb7b a8af f850 d33f
00000570: 1e5d e97b b7d8 d23f 7ed1 7983 7f08 c8bf
00000580: 4f58 b223 25de d03f 208c c047 40e7 b33f
00000590: f46c 4fd2 e80f d53f a4a5 de12 54a5 d1bf
000005a0: e811 946f 86e2 c6bf 53b4 d8aa da1b c2bf
000005b0: e499 2d39 ea7c ac3f aedf 83d6 d069 cf3f
000005c0: 68e2 92f5 2300 c43f efc9 ee73 0804 aebf
000005d0: 0c8e a511 3dbd c43f c19c 9e09 c1fc 97bf
000005e0: 3384 a38d b24c cdbf 1a40 7f02 ff0f babf
000005f0: 84e2 4424 efae 9d3f 1fcb 16f4 7f55 cb3f
00000600: 9a50 0670 9755 ba3f e02a a8fd 14a3 c8bf
00000610: 3822 c8de 5f63 c73f 2e15 fa83 9d8e d43f
00000620: e0ba ff2f 9550 b8bf e13d 72b6 34c0 c0bf
00000630: ead3 897a 3db9 bd3f fb63 33f9 dc18 d23f
00000640: e41d 0b9b 5fec c1bf 63a3 94db 6dd8 afbf
00000650: da99 9415 a9f3 c2bf bc19 2d22 ccda d1bf
00000660: f648 3869 7eaf d13f 49b3 5938 2053 d2bf
00000670: cf5f cb1e f24a d4bf f628 c4e9 79f8 c4bf
00000680: 3feb 4206 d6d4 cb3f d4d5 8482 5fbb 90bf
00000690: 3004 d1fd f6d7 babf 5b80 b298 43b2 c33f
000006a0: 4699 fb71 8e16 d3bf 66a0 c418 37de cc3f
000006b0: 2f2f ebb1 9fac c9bf 6fbc 3a09 03fb be3f
000006c0: e8bb e4b1 6830 b63f 1da4 5de3 ab3c a1bf
000006d0: 631f da36 6ddb 77bf e987 558f 0e9b c8bf
000006e0: 050d 00e3 1ca3 c63f 20c5 6571 b27c aebf
000006f0: 54ec 85bf cb2b d43f a224 2a05 d3e7 c2bf
00000700: dd9e 132e 3161 97bf db7d 3a5f d837 d13f
00000710: 3210 9b1d ddd1 d03f d645 c298 2a0d 63bf
00000720: 1107 6be9 be3a a43f 896a 8ee8 3ae0 b9bf
00000730: 16f3 de91 4365 c23f 648d b5c6 2a40 c23f
00000740: ee63 e0af 64e7 a73f dc4a e9b1 c8da c43f
00000750: fb9e 9963 d3da c0bf a510 96fd 3fdb c4bf
00000760: 50ac c3a5 c27a d3bf ec2a 3549 0989 c23f
00000770: 1791 be30 8902 ca3f 54a5 8b2b b7a0 8f3f
00000780: fa64 6ebd c5e3 cf3f 672a 7fc5 8032 62bf
00000790: 0df0 d9c8 0909 d13f 5c7a f5de 6c71 70bf
000007a0: 7783 ee98 0d1f c73f b10e 4629 6670 c53f
000007b0: bd82 4b3f d527 a3bf dee3 4c44 f73b bd3f
000007c0: 2d08 115d 19e4 b1bf 1945 d6a0 404c 4e3f
000007d0: bc25 5ff6 8b90 ccbf dfff 424a 8792 823f
000007e0: 7d66 456b d2a1 d33f 7376 ce19 b99d b03f
000007f0: 8910 5447 4f89 b33f 4eb3 0181 fb1c d0bf
-0.1217825954125396 0.13783136581622837 -0.07708216979115286 0.322432526459339 -0.24246701739717158 0.2174453049622324 0.023560062737773235 -0.02161939553986064
0.16012067758425833 -0.1251449759494053 -0.24705182973466244 -0.2282418929437158 -0.31245266409594247 0.2594532026965083 0.005697600169616069 -0.27768761377588436
-0.005576145224977588 -0.08001411548806514 0.3193495445474015 0.031430002750621376 0.03768936067760799 -0.2746943814791573 0.0804031762156269 -0.0640129844126611
0.3006386204427896 0.15054264567769673 -0.005350861521390362 0.1414880244576408 -0.18085210145030892 -0.14087846484179867 0.0595259801890004 -0.2335079233973019
-0.21309019789683678 -0.06297840820800835 0.15605259878373673 -0.10898490287906033 0.2723340088817475 0.09660262148987746 -0.043286266263336835 0.008941673205966555
-0.1145802166995847 -0.18476822911204469 -0.01915112884284077 0.21717740730746526 0.29962034710597985 -0.2014265177062336 -0.15028838099553413 0.2541410929892342
0.2426690591740998 0.12216846920594439 -0.1430948697876007 0.17625738404909191 -0.1678047089919326 -0.3032386315425292 -0.17531445173503302 -0.025869522678778335
0.12447430251415927 -0.2694097744761368 0.09172396469966347 -0.2465771404089701 0.015471313767644098 0.1261386197469124 -0.28228784481150043 -0.1374973664624187
-0.27360545985308926 2.5603789323268332e-05 -0.2623987595315757 0.2633535751987249 0.09683281972158608 -0.18381361866497412 0.07812151737856642 -0.0020604092385266663
-0.14292165792783812 -0.005881810596346964 0.08074119071125613 0.00013859757978840407 0.13844984344053055 -0.06188723730918757 -0.21066479245682154 0.013991382367972541
0.06681679063719999 0.23373530137043957 0.07820148393428458 0.25277370936994276 -0.08830723316074694 0.13375656401110508 -0.13160603381357494 -0.026951858288109636
0.0845334420228457 -0.008304374158227623 -0.16332740285980787 -0.2885712052981232 0.21617125902510187 -0.18610966115060926 0.17638300895114747 0.11579034550588975
-0.2070550677158791 -0.027188300466007138 0.1435970158689113 0.002416963610147221 0.28169677373361424 0.08857863651618686 0.09421243396713876 -0.059218791165790166
0.22420859222862288 -0.17777411051481545 -0.013226675849578146 0.22826930910168602 0.08136178272496489 0.15937895624182039 0.2877561320937734 -0.21514229418384423
-0.15140328541102 -0.03232765108043801 -0.09857876237365264 -0.21584513965133983 0.23744519904686323 0.2437361097258516 0.04916760646151929 -0.1991485860148194
0.1759832543002592 -0.014477994035160686 0.05502524886815349 0.015103301357894321 0.18303677471956617 0.1646113514008113 -0.04152969846675564 -0.08736320409165686
0.1471933085803547 0.23842246969237565 -0.1023390609840754 0.06816424571559299 -0.2813682219637287 -0.27448928418556534 0.2546774680259782 -0.22806371976295298
0.21943849076753846 -0.16329539008240984 -0.18805903164023957 0.2827066914698097 0.03722213020533895 0.1329443617905634 -0.22546245438785875 -0.1495993956947865
0.20656148436380067 0.0484982011746139 -0.02864684979183391 0.08470681392577396 -0.1333181384953965 -0.08867311506394461 0.2888872206791383 0.32039965509724727
-0.12191607814358703 0.3069661742252474 0.13385611421269664 -0.07150788606970665 0.26481671172437127 -0.24593463015813802 0.2564068898137369 -0.12468455446433108
-0.07044902294067683 -0.26997987555143516 -0.09581971029321493 0.05243349925454679 -0.1758253687545907 0.29708760420230634 -0.1961989814561534 -0.18803956579676298
0.19732868987201196 -0.018647499242069644 0.016319954161206122 -0.17012916935371147 -0.0416258698074214 0.3018171039020074 0.2944773397516246 -0.18775934142798784
0.26355865942003204 0.07774736167679963 0.3290960363207909 -0.27571584551568606 -0.17878799865879036 -0.1414750417910989 0.05564052532172406 0.245416741126744
0.15625428667933083 -0.05862451949305469 0.16202510224967204 -0.023425117694981127 -0.22890312114671615 -0.10180658160175007 0.02898763331288247 0.21354674738321308
0.102868523454449 -0.19247686753836657 0.18272016885772913 0.3212045468174719 -0.09497959539269685 -0.1308656588412154 0.11610779039058597 0.28276752792368115
-0.14002604551772813 -0.06219809823443858 -0.14806092790349973 -0.278979333281679 0.2763362910783508 -0.28632359984367334 -0.31707432753819104 -0.16383289255492856
0.21743274026615642 -0.016339771596184452 -0.10485786148730436 0.1538776870338577 -0.2982517350304942 0.2255314703882078 -0.2005805605643842 0.12101763701751776
0.08667616217711294 -0.03366601133786438 -0.005824495905137758 -0.1922319602845726 0.17685280879968715 -0.05954511293647102 0.315173089060129 -0.1476997161119345
-0.022831695973677724 0.2690335206952718 0.262809065734703 -0.0023256141631200307 0.03951069449750667 -0.10107772996563304 0.14371533033945444 0.14258322432133774
0.04668726584367976 0.16292675673556445 -0.13167803157124766 -0.16294097787988907 -0.3043676966469251 0.14480701517671635 0.20320238952729916 0.015443259254839838
0.24913856267520612 -0.0022213473384671725 0.26617664923082957 -0.004014420773585128 0.18063516585700842 0.1674926473170806 -0.03741327664989089 0.11419625680436193
-0.0698867656911097 0.0009246173446390309 -0.22316121606699635 0.009068543390071624 0.3067518279618538 0.06490666275063876 0.07631392947593175 -0.25176894758515267

encoder.transformer_layers.0.linear2.weight f8 [8, 2048]
00000000: df19 e947 be8e a03f 6a51 a79e 46ff 7bbf
00000010: 7034 2de0 2281 67bf f2aa b414 a958 623f
00000020: 1fc9 781d 0c09 a4bf 0ae8 663f 5a85 85bf
00000030: 38fa 4ad8 1c43 60bf fd61 081d 34c9 96bf
00000040: bd9e e1d4 09e0 76bf eca8 d94c 4f77 7c3f
00000050: d4ee 0190 c4c6 8bbf ebf8 0d8f d81a 87bf
00000060: a776 eccc 0416 8dbf 807d 2935 c736 923f
00000070: ec24 3a39 7e58 873f 7539 6acc 3512 92bf
00000080: 0b06 2394 6a35 71bf ec2c 447e 886a 93bf
00000090: 7e21 6323 af49 673f 2c25 9ff0 3327 763f
000000a0: c01d c167 2d1e 7dbf e322 e781 b9ab 78bf
000000b0: 28cb 3c32 61aa 6a3f d257 4546 9af4 8c3f
000000c0: f7fd 822f 3403 943f b0ba 9f75 08c1 78bf
000000d0: ddaa 93bd fe28 99bf 5ac8 4835 cf49 643f
000000e0: e7eb ad10 7a70 94bf 6e8b 2566 66e2 85bf
000000f0: 07b4 ca0b bcec 823f 2a15 d948 0d39 92bf
00000100: 131f 1dd3 7a27 913f abf0 7d60 d37d 643f
00000110: aa54 c4e7 0e48 953f 3f02 c427 5d16 903f
00000120: 96db 27cb c35d 8d3f 7b07 b3cf ff4c 903f
00000130: 8915 cd37 e55e 913f e8bb 9dfa d031 60bf
00000140: 6d41 c308 00b2 94bf aff8 874e 3a3a 8d3f
00000150: 2176 3501 4b51 90bf b69c d953 fa53 97bf
00000160: bb00 2907 4600 93bf 0efc 93e2 7466 903f
00000170: 3dbd 8da8 d396 7cbf 0fa6 18e9 dff8 91bf
00000180: 46c3 3944 f45c 70bf 8d3f 773a 2519 92bf
00000190: 80dc a0f5 5736 83bf 76d1 2338 122e 75bf
000001a0: b36e cf9f f64b 87bf f7bd dcfc b53a a53f
000001b0: 96de e400 35ac 74bf 7835 4142 243a 8cbf
000001c0: 55f4 cc55 b2f0 80bf 75d3 c3a8 89dd 673f
000001d0: 1535 bf8c ba73 93bf b73a d3f2 fe72 80bf
000001e0: 9435 e66a b1a1 8d3f fea2 1eca 3459 7a3f
000001f0: b0a1 5a2a 233a 743f 4c1b b300 f478 81bf
00000200: ea8c 1ecf e514 823f a3cb 70d5 ac37 9d3f
00000210: 2967 0abd 6549 613f 46a1 dd72 8057 65bf
00000220: 3d4f 7b30 2484 68bf 5303 de9c 9745 85bf
00000230: 7c74 3cf2 cc37 7fbf 1a30 ac29 f34c 6dbf
00000240: 8c30 b907 a47c 883f f17d baf7 5f05 81bf
00000250: 618e fcaf 0b65 713f df95 17c8 f1a4 943f
00000260: b485 921d 1ce4 633f 02ed 6c82 8634 7f3f
00000270: 651c 7bc3 ab9e 723f a0b2 a54f 8f50 8d3f
00000280: cae8 b58c 429d 953f 24bf 840d 9e92 893f
00000290: 3c75 59ab 0e4a 733f bc33 e964 65e6 953f
000002a0: 9b3a d337 c87b 973f 0dad 7ed2 9294 853f
000002b0: 7688 de7f 1a33 62bf 22f8 e6a9 1cdb 8cbf
000002c0: c1ad 3c01 9759 92bf 8311 7b06 63b1 98bf
000002d0: ffd2 8301 1232 643f cfad 23a7 e492 68bf
000002e0: a40e 5f10 639d 703f 2e51 9c8d b633 6ebf
000002f0: 1008 930b ba07 823f 807b 26bd 8970 923f
00000300: c3f1 fba5 4ca8 73bf a546 e750 1b6e 8d3f
00000310: 74f1 13fc dbf3 85bf aefb 2e42 ad76 983f
00000320: 4304 9298 95ff 96bf 41ba db0d c460 873f
00000330: 0f22 c49b 3fb4 673f 85f4 c32a 859d 843f
00000340: caac 3641 59f0 4ebf bc01 0dbe 8ed7 8d3f
00000350: 7624 1a0a d6ca 4d3f a5ba 55f8 4893 85bf
00000360: 0151 e1a4 3b15 853f c897 84de 8a24 853f
00000370: 6a24 f0a3 7e18 67bf 6a32 ced5 8dcb 8d3f
00000380: 8737 9ac5 4c4e 93bf e31d 9b99 dc9d 85bf
00000390: 7e9e 3324 58ce 65bf 6e45 32df 0d5b 8f3f
000003a0: a8a6 d9d1 b87c 7fbf 1601 ae44 2c66 793f
000003b0: 25ad 7bae b45d 703f 258f c467 0480 9b3f
000003c0: 4af3 9f8f d886 833f eb09 56b9 a6a8 94bf
000003d0: 0173 3ce7 72f8 8c3f 1c17 9f81 20f8 27bf
000003e0: eac3 cd55 9095 84bf fcea f235 ebc3 92bf
000003f0: 7098 df50 b19f 51bf 9194 21eb abae 813f
00000400: 3fff 6444 e8f1 5c3f 6d0d 985e 36e7 883f
00000410: beb1 dbe1 4e4e 683f acb1 21db ffd3 98bf
00000420: ecc7 40df fe4c 8bbf 46ec 4673 8e64 89bf
00000430: 5538 d29b a5b9 96bf 058f 662a 7096 88bf
00000440: ae56 54c5 c79c 77bf e703 0d6c 7e91 45bf
00000450: 18e7 d37e 4ae0 733f 213a af43 f2a5 41bf
00000460: 08a0 5d7f 60ff 873f 0b8a 65e0 bc16 813f
00000470: a2ce c6a7 b03b 9bbf b65d b522 fe28 6ebf
00000480: 804f 2ba4 db4a 933f 593e 9f33 f07e 9cbf
00000490: ec69 adaf 0eb8 863f 89ac ac49 a665 82bf
000004a0: b919 c09b 7145 8b3f 2539 f400 3519 8bbf
000004b0: 0c56 2c96 b54f 79bf ffa0 b8b5 b59f 77bf
000004c0: 072f 54db b294 8e3f 152d 967e 6a5d 8d3f
000004d0: 56e6 47a6 6367 89bf 4a88 06e0 dcd1 9abf
000004e0: 5616 801b a72f 7dbf c800 50f0 c0cc 783f
000004f0: d097 5039 1d90 883f c1d4 e119 9641 96bf
00000500: 7ecf 47c1 0a32 4bbf 2d42 8fd6 eb15 a33f
00000510: 290d a70f dc9e 8e3f fd43 735c 3637 7dbf
00000520: 3b94 bd6d 5b9c 98bf acaa 6b56 6d37 8dbf
00000530: 9cd0 7a61 d836 863f 4bbd 334e fac7 91bf
00000540: f32e b4df ba1c 77bf 69ec 5ce5 a873 97bf
00000550: 654d 5219 adfc 89bf 979c e68d d86a 96bf
00000560: 3246 dbe9 b898 763f 7851 1572 2177 403f
00000570: f8be 121c 9954 953f 5126 14f1 d574 843f
00000580: 49f4 f7da 2ef2 913f 826e d24d 12c4 92bf
00000590: f4c7 12d1 abe2 88bf 3212 f99e 7816 933f
000005a0: eda8 a72b 225f 693f 26ce 907c 2877 8a3f
000005b0: 2c7b ff6d 3038 9e3f edc4 4a3c 4734 45bf
000005c0: 5456 b597 c6da 91bf 4424 ef9a befd 8c3f
000005d0: 52b0 9d5d d42e 9f3f cc6d 7ca0 bbdd 893f
000005e0: 9711 10be a402 8fbf 02f5 4826 bf28 71bf
000005f0: 452d ed5a f159 9bbf 320d 56d1 17ae 73bf
00000600: 9918 a200 9277 85bf ed01 e15e 6401 70bf
00000610: d6e3 43f5 263f 95bf f9b0 ef1d dfe4 86bf
00000620: ec54 d8c6 e7d0 5ebf 4f15 a066 6a49 8fbf
00000630: 09ca f64a ab06 6e3f 4d6c 1788 27cb 8fbf
00000640: e3e9 7fd0 603a 9abf 6ac5 3375 6343 953f
00000650: 6840 b907 6ce8 9a3f f612 c587 b1bd 81bf
00000660: 0bdb 9a34 09ee 843f 7ae6 a3ef 26c3 86bf
00000670: 9a54 1f78 a14e 833f c1dc 841e fe8b 7f3f
00000680: d62f a63c 545b 8e3f 3246 e786 8a2a 7abf
00000690: 81f6 d6d9 5d2a 96bf 0195 c439 6206 463f
000006a0: 2ed0 1789 32a2 943f 94a5 1259 e2bd 80bf
000006b0: ea59 46fb ae01 343f 8e32 a770 5102 6c3f
000006c0: 04ce be3c 789b 66bf be67 caf7 8bc5 84bf
000006d0: 0765 0881 6aef 623f b67e 7ca4 b86e 6abf
000006e0: 3f5e 2df5 e5e1 90bf 37c7 71b6 f349 6b3f
000006f0: 204f d8ca bc52 863f 2dcf 16c8 4405 983f
00000700: 940f 28f5 7134 83bf 77b8 ae6f d52c 91bf
00000710: 9977 9a0f 0fa2 8a3f b031 b81b 42b0 2c3f
00000720: fcfa 1bde 3d77 983f fe14 609b 61d3 793f
00000730: cfa2 2a2e f782 893f 857a 2a55 b0bd 56bf
00000740: 6874 10a3 73bc 9e3f a212 aeab 5aed 5cbf
00000750: e9c7 e0b0 fbc9 7f3f 8a53 1a5d 0a7e 70bf
00000760: f0f2 c5a5 0ee9 69bf f06b 8a4b e9b4 803f
00000770: 4fbd 5f67 9758 6bbf fd1e bf6f 1ba9 953f
00000780: d1e0 a3ca 3ea9 81bf d6ea facf 9a1b 723f
00000790: 8d05 7d29 3a6e 64bf 34d1 2884 3599 87bf
000007a0: d379 d040 4e34 6f3f c89e 321b cf39 923f
000007b0: bfde 5ea6 901b 6c3f 92d4 098b c82d a0bf
000007c0: 47b1 d1ff 2fe8 7b3f ca34 4ec1 5fb6 633f
000007d0: 64bf 5421 6102 97bf ab15 5231 e109 82bf
000007e0: 2740 e26d f895 84bf 8138 349f 2264 853f
000007f0: 73fc af8c ba04 913f 2390 b9df 80e0 87bf
0.0323390448361811 -0.006835246904718021 -0.002869194141942581 0.0022395422326061338 -0.03913152560962118 -0.010508256015658208 -0.001985126817401619 -0.022251905700700892
-0.005584753422318731 0.00694972015990401 -0.013562713284265206 -0.011281673303298287 -0.014202153686308462 0.01778708707786114 0.011399255868371282 -0.017647591210839992
-0.0042013324002154835 -0.018961079317745197 0.0028427525204259277 0.0054084805396510775 -0.0071088575023802725 -0.006023144377146325 0.003255071483999745 0.0141384175009697
0.019543471717723162 -0.006043465657042432 -0.024570446320391837 0.002476601317789079 -0.019960315006283393 -0.01068572997309555 0.009240597829682796 -0.017795760699546616
0.016752165923462913 0.0025014046149732425 0.020782692809991822 0.01571031146250079 0.014338998448676848 0.015918728877984272 0.016963559656934222 -0.001976879274415467
-0.020210266623338514 0.014271216889934683 -0.01593510813596855 -0.022781287544060468 -0.018555730998060165 0.016015840844371403 -0.006979777136492613 -0.01755094394881068
-0.0039948980007558695 -0.017674047177763042 -0.009380995925410085 -0.005170890015723342 -0.011375357391379159 0.041463553540207636 -0.005047041935817417 -0.013782771369870814
-0.008271592372347461 0.0029132546097749242 -0.018996157494076977 -0.008031837258753212 0.014468561243826263 0.0064327299204840465 0.004938256611844258 -0.008531481047965216
0.008828921683579034 0.02853269627321321 0.0021101939276605597 -0.002605200649601044 -0.0029926974128588178 -0.010386642908771703 -0.007621574946623185 -0.003576731612502837
0.011956483350467083 -0.008311033008168574 0.004246755270091635 0.020160463178305107 0.0024281071788016754 0.007618451526293814 0.004545851661254739 0.01431381189169062
0.02110771163777584 0.012486681735566281 0.0047092984219408406 0.021386703762164436 0.022933128745359892 0.010537287758629188 -0.002221633679213626 -0.014089797911648164
-0.017919883203985302 -0.024114177008202297 0.0024652816465454692 -0.002999731624290659 0.004056345909649348 -0.0036867681018383424 0.008803800085278396 0.01800742356283136
-0.004799174697606326 0.01437016811988496 -0.010719030981356716 0.02389021603061863 -0.02245935195651706 0.011415034935876924 0.0028935663559688306 0.010066070907209354
-0.0009441791357195581 0.014571299719705937 0.0009091897120053888 -0.010534830168322637 0.010294404954187987 0.010323605457028054 -0.0028192971653920222 0.014548404776882868
-0.018853377876943547 -0.010555003583603678 -0.0026618691932645535 0.015310390829003064 -0.007687303497371602 0.006200955317467801 0.0039956148027429405 0.026855534394726228
0.009534541972237815 -0.020174603521363393 0.014145753556982667 -0.00018287083440620625 -0.010050895327113413 -0.018325495879916595 -0.0010756713486386425 0.008633940804609249
0.0017666595682186007 0.012159752618578346 0.0029670277279960347 -0.024246213674290182 -0.013330451191084301 -0.01239882745072952 -0.022192561755723556 -0.01200568799396918
-0.005764751772650163 -0.0006582133574753985 0.0048525724389436795 -0.0005385811740497606 0.011717561613934904 0.008344150159875793 -0.02659488700892488 -0.003681656225733322
0.01884024800786177 -0.02782798113895377 0.011093249069451049 -0.008982943652503532 0.013316047254204532 -0.013231672374356915 -0.006179532358847616 -0.005767545513244209
0.014932057684311951 0.01433833311855052 -0.012404230606068694 -0.026191188023979607 -0.007125523341533565 0.0060546433132914815 0.011993625938043012 -0.021734567002984265
-0.0008299400820406114 0.03727662080894265 0.014951438167264701 -0.007132732723406751 -0.02403395516684646 -0.014265875053259457 0.0108467964886148 -0.01736441709811957
-0.005642633415174225 -0.022902144431310143 -0.01268897279286447 -0.021891959820689335 0.00551674110256921 0.0005024827297952913 0.020830528582052005 0.009988471431387288
0.017525417437344513 -0.018326078414800502 -0.012151090925133425 0.018640408232629642 0.003097120990095728 0.012922588635865994 0.02951121970533703 -0.0006471011953036711
-0.01743612576441074 0.014155854323592128 0.03045207806955858 0.012629953227181988 -0.015141760874038108 -0.004189249685223164 -0.026710292029105593 -0.004804699933973299
-0.01048196854050003 -0.003907577584016481 -0.02074871894817306 -0.011178725339015193 -0.0018808616108619237 -0.01527674794852865 0.0036652894557047716 -0.015524205055888052
-0.02561332008915852 0.02076487925382279 0.026277244540608896 -0.008662592845789057 0.010219642560838979 -0.011114410579909906 0.009427319982856997 0.007701866772826083
0.014822633839479165 -0.006388226624453307 -0.021645990773086602 0.0006721477143726563 0.020149983994954983 -0.008174675315177272 0.0003052761269598791 0.003419074118232785
-0.002759680593919846 -0.01014241552302397 0.0023114280850334875 -0.0032266241359052107 -0.016486733521871463 0.0033311615002781475 0.010899996700608094 0.02345759841200772
-0.009377374929506556 -0.016772589627799008 0.01300441519134292 0.00021887595163184786 0.02389237087390493 0.006305104519929159 0.012456828209296415 -0.0013879987715551833
0.03001576121106489 -0.0017655740218468848 0.007760985534376965 -0.004026451571594767 -0.003162888153552472 0.008157560937709335 -0.003338142118984123 0.021152905173749115
-0.008623591002546867 0.004420857177758383 -0.0024939666726885913 -0.011522691817937948 0.0038091209776347306 0.017798648867624306 0.003431112784678308 -0.03159929940458385
0.006813228127708299 0.0024062986580647193 -0.02247001424728924 -0.008807906453749256 -0.010051670888316334 0.010444899066467396 0.016619601094131697 -0.011658675029316673

encoder.transformer_layers.0.linear2.bias f8 [8]
00000000: fab0 bd1b cbd0 7bbf 4858 aa24 a063 90bf
00000010: d4fc e9ee 4e46 893f dbd2 bdd9 7000 8cbf
00000020: 76e0 5aba 7278 90bf f66c a3ac 71fe 81bf
00000030: 6104 a554 3db0 97bf e48c 6dc6 73bd 7bbf
-0.006790917770427502 -0.016005041349295618 0.012341133752896395 -0.013672715802138516 -0.01608447325153902 -0.008786094742780009 -0.023133238116546887 -0.006772472616691536

encoder.transformer_layers.0.norm1.weight f8 [8]
00000000: b82e edc8 5191 f03f 8dc6 36aa 5956 ef3f
00000010: afbe b7a6 969f f03f 046f 9586 7e9b ee3f
00000020: 4250 2136 8fcb ef3f ddc9 d583 69ef ed3f
00000030: a595 85b5 dc0e f03f 9696 27d5 8330 f03f
1.0354783867541482 0.9792908024303003 1.03896203159449 0.9564812306011565 0.9935985619763488 0.9354751181511421 1.0036284533210644 1.0118444753983673

encoder.transformer_layers.0.norm1.bias f8 [8]
00000000: 0cdf 25cd 7afd 56bf 640c bb64 a9ad 63bf
00000010: cd89 1523 a362 75bf 3e0a 01fd 1135 783f
00000020: 66ce 1de8 0dbf 7fbf 6e8e f63d f5bd 7ebf
00000030: e5ae 826e d493 843f 3894 65f0 7aa5 503f
-0.001403207705690637 -0.0024021442858113574 -0.0052210209408678045 0.0059099867503982755 -0.0077505629759460955 -0.00750537679360584 0.010047587988388293 0.0010160160614642987

encoder.transformer_layers.0.norm2.weight f8 [8]
00000000: c2d1 9fd4 5f11 f03f 1350 1732 e013 f03f
00000010: 48a9 ecbe 082c f03f edda 28f5 25f7 ef3f
00000020: 2176 599f 9f13 f03f 3d26 efe6 af53 ef3f
00000030: 65e9 8c66 7409 f03f 9558 ff47 94f8 ef3f
1.0042417817722797 1.0048524815256357 1.0107505281435625 0.9989194668076756 1.0047908997143014 0.9789657125886105 1.0023082738758486 0.9990941435051065

encoder.transformer_layers.0.norm2.bias f8 [8]
00000000: 169b 8554 9121 6cbf 1032 c298 e607 7abf
00000010: 397d fac6 f97c 7ebf d20b ba4b 930c 593f
00000020: 39c9 cb90 a4a4 59bf 8d11 7d76 abe1 62bf
00000030: e8c3 95cf bd57 6d3f 15b0 3250 9286 73bf
-0.0034339750747450866 -0.006355191009913344 -0.007443404858036567 0.001528877109109973 -0.001565132816889815 -0.0023048733600338823 0.0035818774455766873 -0.0047670092928165
